models/successful/DirectLookup_Adam_p23.pt (torch, 50955 bytes, 1 tensors)

lookup_table.weight f4 [529, 23]
0.48423654 -0.05635936 -0.06452734 0.077681586 -0.08325377 -0.14727074 -0.0935957 -0.0009620553
-0.19592457 0.020987764 -0.17769152 -0.17081381 -0.11479035 0.11174199 -0.04278492 -0.027322335
-0.124795 0.041902944 -0.056131814 -0.019933201 -0.02311458 -0.0132919345 -0.21906763 -0.028915424
0.39795747 -0.06623171 -0.03410616 -0.05475958 0.020177852 -0.14324552 0.13731994 -0.041394792
0.095011026 -0.079030015 0.1109024 -0.0043795416 -0.029583858 -0.025118642 -0.11932741 -0.06899806
-0.14345317 -0.022672052 -0.069788 0.15443535 0.033872366 -0.10436597 -0.15307418 0.03813083
0.2716746 0.018892068 0.037375692 -0.146378 -0.061451726 0.0005733613 -0.14001364 0.17545465
0.035532583 -0.04960783 -0.11983486 -0.055821843 -0.08455422 -0.102657095 -0.026774522 -0.10409546
-0.10515939 -0.07859032 0.05267614 0.025918894 -0.19856921 0.067457825 0.008144238 -0.078368485
0.61219436 0.13280846 -0.1381484 -0.058759287 -0.13514811 -0.1346505 -0.076128274 -0.14547461
-0.19579367 0.14959645 0.03469537 -0.174479 0.08671523 0.04291763 0.04967682 -0.020535313
-0.15189002 0.046005204 -0.07229438 -0.04396862 -0.21363029 0.09154113 -0.101413265 0.06293608
0.43518308 -0.03379088 0.13628882 0.09747291 -0.029814247 0.03621565 0.03602183 0.0018310621
-0.0332009 -0.08987254 0.075296834 0.060786758 -0.01028573 -0.021314174 0.057998635 -0.002407426
0.052957907 -0.027545992 -0.06347126 -0.13212854 -0.082164496 -0.045026377 0.091612056 0.07289072
0.5611735 0.0962179 0.08855903 -0.045578815 -0.20569868 -0.07733464 -0.15146917 -0.21044408
-0.00132435 -0.049942784 -0.08374343 0.19295244 -0.074801154 0.12094521 -0.15319075 -0.09723907
-0.042836986 -0.019907933 0.107201226 -0.028707175 -0.06784328 -0.08557053 0.012493047 -0.07656466
0.590653 -0.13848612 -0.009861513 -0.026555564 -0.11601922 -0.010005034 0.09151445 -0.0023992686
0.0025939103 -0.21204278 0.0922146 -0.054265376 0.10515211 0.01485387 0.023029508 0.07721391
-0.042465642 -0.27314463 -0.19309878 -0.03888123 -0.01849598 -0.016958293 -0.05414061 0.2069056
0.45159808 0.07188662 -0.14916737 -0.03755614 -0.041226007 -0.03993847 -0.15887429 0.05023531
0.11257422 -0.097842865 -0.018160107 -0.13156846 -0.08072942 0.071877174 0.07502681 0.019708669
-0.09833924 -0.20816496 -0.018726993 0.15141913 0.036497667 -0.09469782 -0.17474587 -0.07229775
0.6533303 -0.15224966 0.10911745 0.23914188 -0.013435436 -0.032581344 0.044527728 -0.10269873
0.018292101 -0.005520872 -0.1904781 0.1759901 0.12360388 0.07109671 -0.1812024 -0.069859624
-0.15156251 -0.0072186217 0.16662847 0.0011235243 0.005902594 -0.0152002685 0.044194814 -0.20422529
0.41709697 0.023829347 0.0546074 0.028476808 -0.020587035 -0.08013396 0.116451345 -0.10645455
0.08597509 -0.10795082 -0.023088362 0.08096637 -0.088865966 0.09247372 -0.18778346 -0.01235918
0.06877898 0.100327685 -0.38813362 0.1565793 -0.18960422 -0.12532815 -0.048982516 -0.00048918556
0.42762545 -0.11568816 0.035162926 -0.18488568 0.09059364 0.064799465 -0.12613568 -0.13147527
0.015511109 0.020594425 -0.09073361 -0.01121575 -0.13133994 -0.18385144 -0.020420603 0.011486409
00000000: daed f73e 13d9 66bd e926 84bd 8617 9f3d
00000010: f480 aabd 24ce 16be 1aaf bfbd 7032 7cba
00000020: 73a0 48be 88ee ab3c c4f4 35be d1e9 2ebe
00000030: 3417 ebbd fcd8 e43d 3e3f 2fbd 17d3 dfbc
00000040: 8594 ffbd 6ca2 2b3d 79ea 65bd f44a a3bc
00000050: ca5a bdbc 6ac6 59bc 4453 60be 0ae0 ecbc
00000060: 15c1 cb3e 7ea4 87bd e7b2 0bbd 954b 60bd
00000070: 064c a53c f4ae 12be 999d 0c3e 968d 29bd
00000080: 2495 c23d 7dda a1bd cc20 e33d 4282 8fbb
00000090: d959 f2bc 9cc5 cdbc ee61 f4bd db4e 8dbd
000000a0: 63e5 12be bdba b9bc 03ed 8ebd 4d24 1e3e
000000b0: c0bd 0a3d d3bd d5bd 7abf 1cbe 132f 1c3d
000000c0: ef18 8b3e 8ac3 9a3c 4117 193d 1de4 15be
000000d0: ceb4 7bbd a04d 163a bc5f 0fbe 62aa 333e
000000e0: 9d8a 113d 9431 4bbd fb6b f5bd 72a5 64bd
000000f0: c32a adbd e23d d2bd 3e56 dbbc 0030 d5bd
00000100: ce5d d7bd f6f3 a0bd f0c2 573d dc53 d43c
00000110: ba55 4bbe 5427 8a3d 696f 053c a87f a0bd
00000120: c5b8 1c3f f1fe 073e c676 0dbe 94ad 70bd
00000130: 4464 0abe d2e1 09be 24e9 9bbd 4cf7 14be
00000140: 237e 48be d02f 193e bb1c 0e3d 9faa 32be
00000150: c197 b13d 66ca 2f3d ec79 4b3d ac39 a8bc
00000160: 0f89 1bbe f46f 3c3d 130f 94bd 7118 34bd
00000170: e6c1 5abe ea79 bb3d c2b1 cfbd a2e4 803d
00000180: 51d0 de3e 4e68 0abd 4c8f 0b3e e19f c73d
00000190: 023d f4bc dd56 143d a08b 133d 4000 f03a
000001a0: abfd 07bd 180f b8bd 3a35 9a3d 89fb 783d
000001b0: 7a85 28bc 109b aebc fa8f 6d3d e8c5 1dbb
000001c0: 64ea 583d 22a8 e1bc 38fd 81bd b44c 07be
000001d0: dc45 a8bd 946d 38bd 1a9f bb3d bb47 953d
000001e0: 11a9 0f3f e40d c53d 705e b53d dab0 3abd
000001f0: ada2 52be a061 9ebd bc1a 1bbe a77e 57be
00000200: d095 adba ce90 4cbd ad81 abbd 5395 453e
00000210: 5931 99bd 1fb2 f73d 09de 1cbe 4725 c7bd
00000220: d675 2fbd f615 a3bc 518c db3d 4f2b ebbc
00000230: 6bf1 8abd 9a3f afbd a3af 4c3c efcd 9cbd
00000240: 0935 173f 4ecf 0dbe 2f92 21bc 0e8b d9bc
00000250: 7c9b edbd 27ec 23bc ee6b bb3d 0c3d 1dbb
00000260: 98fe 293b be21 59be 02db bc3d 5f45 5ebd
00000270: fd59 d73d a55d 733c 61a8 bc3c 5422 9e3d
00000280: 74f0 2dbd 9dd9 8bbe b0bb 45be ed41 1fbd
00000290: e284 97bc 1eec 8abc 8bc2 5dbd 10df 533e
000002a0: dd37 e73e 4b39 933d 55bf 18be 78d4 19bd
000002b0: 9adc 28bd 8596 23bd f1af 22be 8ac3 4d3d
000002c0: 508d e63d d761 c8bd 81c4 94bc e2b9 06be
000002d0: 7755 a5bd 5734 933d a8a7 993d 1374 a13c
000002e0: 1566 c9bd 3229 55be 5a69 99bc 9e0d 1b3e
000002f0: 947e 153d eef0 c1bd 95f0 32be d810 94bd
00000300: a840 273f 56e7 1bbe f878 df3d 9ce1 743e
00000310: 4e20 5cbc 0474 05bd b562 363d b653 d2bd
00000320: 51d9 953c 6ee8 b4bb b10c 43be c036 343e
00000330: 0824 fd3d 279b 913d 1f8d 39be 9012 8fbd
00000340: 3433 1bbe 308a ecbb a7a0 2a3e 3843 933a
00000350: 8c6a c13b 8c0a 79bc 9f05 353d 6f20 51be
00000360: bc8d d53e c335 c33c 02ac 5f3d 3248 e93c
00000370: 24a6 a8bc 461d a4bd 0b7e ee3d d804 dabd
00000380: b513 b03d 5215 ddbd ce23 bdbc b2d1 a53d
00000390: 5cff b5bd dd62 bd3d 4f4a 40be 287e 4abc
000003a0: fedb 8c3d 9a78 cd3d 73b9 c6be 5356 203e
000003b0: 9c27 42be 0656 00be e4a1 48bd b03c 00ba
000003c0: b9f1 da3e eaed ecbd 0007 103d ac52 3dbe
000003d0: 2989 b93d 95b5 843d b629 01be 74a1 06be
000003e0: 4e22 7e3c a4b5 a83c 8bd2 b9bd 44c2 37bc
000003f0: fa7d 06be 8d43 3cbe 1c49 a7bc 7e31 3c3c
