models/successful/DirectLookup_Adam_p17.pt (torch, 21963 bytes, 1 tensors)

lookup_table.weight f4 [289, 17]
0.5825945 -0.1683968 -0.11076976 0.09065493 -0.011056412 -0.095324196 -0.0535886 -0.11944293
-0.26725742 0.116447374 -0.11236359 -0.06576549 -0.12380327 0.1136539 0.12855443 -0.092022695
-0.024346385 0.053156644 0.69145316 0.014758806 0.024994748 -0.0079969885 -0.031960465 -0.025769414
0.021589192 -0.24165902 0.050182104 -0.06870132 0.12608325 -0.025031898 -0.06332079 -0.04982245
-0.27208441 -0.16015868 -0.25621378 0.107711695 0.6336964 0.022208096 -0.23086962 -0.007005416
0.044576004 -0.097474076 -0.059034485 -0.039403748 -0.18020774 0.06083583 -0.09272815 -0.21498238
-0.09806484 -0.15405676 -0.15080976 0.06588866 -0.1462046 0.11780488 0.6860356 -0.057915278
-0.111727014 -0.11868811 -0.12842734 -0.054209106 0.23400007 0.08718897 0.097232774 0.20275731
-0.07478291 0.0037470805 0.07933128 0.20630737 -0.17098247 0.13741887 -0.044572078 -0.084443234
0.5576629 -0.004256201 0.042362854 0.061906084 -0.02329007 0.06570906 -0.13221987 -0.15120421
0.020063352 -0.074980766 0.04352554 -0.1182428 -0.098102465 -0.10732215 -0.20295787 -0.16807127
0.07903457 0.122198485 0.4177376 0.06422743 0.07547504 -0.060714677 -0.11279025 0.07575016
-0.022316914 -0.01644124 0.018976238 -0.1470638 0.16273613 -0.08038536 -0.04730329 -0.09222641
-0.09353236 -0.292042 0.09924642 -0.19113028 0.40734953 0.108674996 -0.08202486 -0.087824084
-0.0891438 -0.020498037 -0.07672263 -0.14769623 -0.051073372 -0.24471375 -0.01682178 0.081533454
0.008738697 0.058914945 -0.03999412 -0.14511847 -0.07394689 -0.21275848 0.457493 -0.13694133
0.094430774 0.11714895 -0.06713185 -0.08979319 -0.16151945 -0.016900074 -0.024389995 -0.017033443
-0.018457094 0.15549444 -0.07434867 0.19024892 -0.06079234 0.1235591 0.12359008 0.08280102
0.53258485 0.028401628 0.0703626 -0.26261088 -0.038694132 -0.05145722 0.14401676 0.23948614
-0.115437746 -0.0026671402 0.022249613 -0.00842162 -0.045763023 0.14260694 0.03208062 -0.14606985
-0.17863278 -0.016500685 0.4427296 -0.056713622 -0.0804617 -0.19845663 -0.14870088 0.03728268
-0.073218 0.15005356 0.014537419 0.030774046 -0.06237671 0.12926005 0.065932356 -0.07339124
0.06575201 0.095416084 -0.13384208 0.050319277 0.55645347 -0.1423739 -0.1410942 0.042732127
-0.20194261 0.20838055 -0.14648747 -0.2645665 0.10864087 -0.05839575 -0.078226656 0.06397094
0.078272656 -0.09518822 -0.0013637757 -0.019851115 -0.014803351 0.10717904 0.45465803 -0.094601244
-0.025185432 0.10826009 -0.09665426 0.04877103 -0.07353592 -0.08112854 0.11299443 0.045358997
-0.06888588 0.22922255 -0.021453587 -0.23308541 0.034621008 -0.056806315 -0.02119951 0.07824945
0.3400132 -0.3007409 -0.10867413 -0.09195326 0.15281677 0.0037748888 -0.033541232 -0.08971151
-0.1334789 0.012104886 -0.08489152 -0.15539856 -0.1569585 0.03492646 -0.00021296274 -0.04552835
-0.073444106 -0.13962118 0.41770002 -0.21654451 -0.24207196 -0.09719105 -0.052594118 -0.08909833
0.20618404 0.09076462 -0.084876105 0.123118326 0.014366334 -0.27578938 0.03496967 -0.02754644
-0.004013745 0.043490283 -0.030599397 -0.10884012 0.6437105 -0.20365824 0.06615134 -0.078804806
00000000: ea24 153f 3670 2cbe 42db e2bd 4ba9 b93d
00000010: f425 35bc 5539 c3bd b87f 5bbd 7f9e f4bd
00000020: f7d5 88be f67b ee3d e21e e6bd 0fb0 86bd
00000030: 928c fdbd 60c3 e83d c6a3 033e 6576 bcbd
00000040: 1272 c7bc c8ba 593d 1303 313f ebce 713c
00000050: c9c1 cc3c cd05 03bc fae8 02bd 611a d3bc
00000060: d1db b03c 7675 77be c08b 4d3d 47b3 8cbd
00000070: f81b 013e b20f cdbc 55ae 81bd a012 4cbd
00000080: a64e 8bbe a300 24be 742e 83be f397 dc3d
00000090: ed39 223f c1ed b53c 1669 6cbe b08d e5bb
000000a0: 5495 363d 7da0 c7bd 25ce 71bd d365 21bd
000000b0: 6188 38be fe2e 793d 42e8 bdbd 5724 5cbe
000000c0: 38d6 c8bd 0ec1 1dbe e06d 1abe a2f0 863d
000000d0: a9b6 15be af43 f13d 07a0 2f3f 9238 6dbd
000000e0: 22d1 e4bd c012 f3bd 7582 03be 5e0a 5ebd
000000f0: b79d 6f3e 2190 b23d fa21 c73d 9d9f 4f3e
00000100: c827 99bd 9491 753b 7078 a23d 3d42 533e
00000110: 0716 2fbe 88b7 0c3e 3691 36bd 93f0 acbd
00000120: ffc2 0e3f 9a77 8bbb ac84 2d3d 3c91 7d3d
00000130: d1ca bebc 7992 863d a564 07be 47d5 1abe
00000140: e65b a43c 848f 99bd d647 323d 4829 f2bd
00000150: f2e9 c8bd b7cb dbbd 30d4 4fbe e01a 2cbe
00000160: e0dc a13d 3343 fa3d b4e1 d53e ac89 833d
00000170: a892 9a3d f4af 78bd 93fe e6bd e622 9b3d
00000180: f6d1 b6bc c8af 86bc 0e74 9b3c e597 16be
00000190: 4da4 263e 14a1 a4bd 18c1 41bd 33e1 bcbd
000001a0: e58d bfbd 8786 95be b541 cb3d a8b7 43be
000001b0: 1e90 d03e ff90 de3d a6fc a7bd 1ddd b3bd
000001c0: 0691 b6bd 80eb a7bc c120 9dbd ae3d 17be
000001d0: 5032 51bd 3e96 7abe d4cd 89bc 03fb a63d
000001e0: c02c 0f3c cc50 713d e0d0 23bd f099 14be
000001f0: 7871 97bd 5cdd 59be 863c ea3e 593a 0cbe
00000200: ec64 c13d caeb ef3d 6c7c 89bd 7ee5 b7bd
00000210: 5b65 25be 0672 8abc 87cd c7bc b889 8bbc
00000220: 5533 97bc ef39 1f3e 1e44 98bd 9dd0 423e
00000230: 6401 79bd 8e0c fd3d cc1c fd3d 9593 a93d
00000240: 7b57 083f 88aa e83c 441a 903d ef74 86be
00000250: bd7d 1ebd cec4 52bd 2179 133e db3b 753e
00000260: a06a ecbd 30cb 2ebb d244 b63c d6fa 09bc
00000270: 0272 3bbd 8e07 123e f866 033d 5693 15be
00000280: 83eb 36be 722c 87bc 74ad e23e 8b4c 68bd
00000290: 1bc9 a4bd 3738 4bbe 0b45 18be b9b5 183d
000002a0: 52f3 95bd a4a7 193e 5b2e 6e3c da19 fc3c
000002b0: b97e 7fbd bf5c 043e 8b07 873d 254e 96bd
000002c0: fda8 863d 8269 c33d e60d 09be 961b 4e3d
000002d0: bc73 0e3f 77ca 11be ff7a 10be e207 2f3d
000002e0: 0bca 4ebe b661 553e d000 16be 4375 87be
000002f0: 1b7f de3d 6230 6fbd 4c35 a0bd 3203 833d
00000300: 6a4d a03d 0bf2 c2bd b8c0 b2ba ce9e a2bc
00000310: c189 72bc af80 db3d f0c8 e83e 4cbe c1bd
00000320: ae51 cebc 77b7 dd3d abf2 c5bd 22c4 473d
00000330: 009a 96bd b826 a6bd a069 e73d 5bca 393d
00000340: 0a14 8dbd 51b9 6a3e 6fbf afbc f1ad 6ebe
00000350: c2ce 0d3d bdad 68bd 98aa adbc 3f41 a03d
00000360: 3616 ae3e b6fa 99be 8b90 debd fe51 bcbd
00000370: 007c 1c3e 2064 773b 8862 09bd abba b7bd
00000380: b1ae 08be 9253 463c 9bdb adbd cd20 1fbe
00000390: bbb9 20be 0c0f 0f3d c04e 5fb9 ef7b 3abd
000003a0: dd69 96bd dbf8 0ebe c7dc d53e d8bd 5dbe
000003b0: b6e1 77be 1a0c c7bd ee6c 57bd 2f79 b6bd
000003c0: e921 533e cde2 b93d 86d3 adbd 7625 fc3d
000003d0: c660 6b3c 4434 8dbe 5b3c 0f3d 12a9 e1bc
000003e0: bc85 83bb de22 323d 96ab fabc 92e7 debd
000003f0: 36ca 243f c98b 50be 5b7a 873d 6a64 a1bd
