models/successful/HybridMemory_AdamW_p17.pt (torch, 32193 bytes, 10 tensors)

computational.0.weight f4 [32, 2]
-0.5445417 0.47196198 0.38578567 0.09264429 0.4555572 0.3374804 0.22330151 0.10430447
-0.4691445 -0.68267286 0.4680319 -0.26432946 -0.63969123 -0.23109224 -0.50881946 0.56906074
0.5213027 -0.62975127 0.28020522 -0.29570997 0.6765061 0.0758893 -0.033923697 0.28702772
-0.60647863 -0.28046432 0.59079856 0.6133653 -0.1207069 0.5297053 -0.58029693 -0.5572408
-0.14349534 -0.6619304 0.59158164 -0.11763913 -0.37714317 0.22000153 -0.1290484 0.40154985
0.40194067 -0.524322 0.1538924 -0.14723805 0.34626913 -0.4905184 0.007948002 0.214259
-0.5585224 0.22280303 -0.27815947 0.25448215 -0.29995212 -0.15357493 -0.67692 -0.096083425
0.5294188 0.24300227 -0.53196996 -0.5889672 0.5506923 -0.29067245 -0.5624082 -0.28963962
00000000: 1667 0bbf 00a5 f13e b385 c53e 4abc bd3d
00000010: cb3e e93e 3bca ac3e 27a9 643e 959d d53d
00000020: b533 f0be a6c3 2ebf e1a1 ef3e 3156 87be
00000030: cec2 23bf 72a3 6cbe fe41 02bf f7ad 113f
00000040: 1874 053f 6137 21bf 0f77 8f3e 4c67 97be
00000050: 812f 2d3f d96b 9b3d 93f3 0abd 4cf5 923e
00000060: 2f42 1bbf 0599 8fbe 933e 173f 8205 1d3f
00000070: 2e35 f7bd c49a 073f 578e 14bf 55a7 0ebf
00000080: 71f0 12be 4574 29bf e571 173f c9ec f0bd
00000090: e918 c1be 1548 613e 4425 04be f197 cd3e
000000a0: 2bcb cd3e f739 06bf f895 1d3e 92c5 16be
000000b0: 304a b13e 3a25 fbbe 5638 023c b666 5b3e
000000c0: 53fb 0ebf 7a26 643e eb6a 8ebe 7c4b 823e
000000d0: 5393 99be bf42 1dbe a14a 2dbf 63c7 c4bd
000000e0: fe87 073f 96d5 783e 2f2f 08bf 8ec6 16bf
000000f0: 2cfa 0c3f 05d3 94be fcf9 0fbf a54b 94be

computational.0.bias f4 [32]
0.36615878 0.078963265 -0.3786023 0.3478364 0.6939918 0.14980945 -0.53027856 -0.20846194
-0.6991765 0.5904647 -0.45909107 -0.007143317 -0.41517416 -0.013582702 -0.49743843 -0.558589
-0.5097622 0.28578284 -0.7045216 0.5733008 0.30487922 0.3713746 0.6510924 0.044413082
-0.17401274 -0.6568678 -0.4201533 -0.48321494 -0.65292996 -0.29308158 0.0050233672 -0.021661403
00000000: 2a79 bb3e 7eb7 a13d 29d8 c1be 9d17 b23e
00000010: 72a9 313f a667 193e 56c0 07bf 0c77 55be
00000020: 3bfd 32bf b228 173f fc0d ebbe 7c12 eabb
00000030: b591 d4be fb89 5ebc 40b0 febe b0ff 0ebf
00000040: c77f 02bf 2152 923e 875b 34bf d7c3 123f
00000050: 2119 9c3e d024 be3e fead 263f 7eea 353d
00000060: 6530 32be 7d28 28bf 551e d7be f367 f7be
00000070: 6b26 27bf ca0e 96be 0f9b a43b 4173 b1bc

computational.2.weight f4 [32, 32]
0.027520077 -0.12152377 0.10494754 -0.16425851 0.06039015 -0.07029881 0.15118411 -0.09283937
0.16490702 -0.12867817 -0.11692386 -0.018138517 -0.12302673 0.01795914 -0.12635247 -0.018633975
-0.022642307 -0.06258714 0.028701054 -0.10043614 0.10315405 -0.050408892 -0.10076501 -0.051694054
0.06467229 -0.10090705 -0.1649949 -0.039982922 -0.11985115 0.17283429 -0.062052358 0.044659115
-0.07780911 0.0028095169 -0.040283915 -0.025141928 0.13110368 0.074514076 -0.08962586 0.09643894
-0.117095865 0.1375861 -0.16051391 -0.16689168 0.17347771 0.09720618 0.010485645 -0.13669948
0.109001055 -0.07426031 0.049072552 0.03705874 0.114640474 -0.039841577 0.17821503 -0.12400965
-0.07626425 0.17447221 -0.15600856 -0.053881012 0.051307216 0.070708394 -0.05667314 -0.13870807
0.14939344 -0.13567382 0.16826709 0.013232181 -0.10103501 0.024802238 -0.0059431423 -0.14713736
0.15337422 -0.10323882 -0.031600483 -0.09469271 0.038896754 -0.118507296 0.15152948 -0.046911336
0.16496488 0.0007666847 -0.028458077 -0.15860568 0.110976204 -0.0011349638 -0.14056507 0.08539164
0.026865305 -0.09667378 -0.10624984 -0.035654567 0.08280258 0.057050686 -0.109221 -0.12396415
0.13953419 0.022826478 0.07467962 -0.17958908 0.086174764 0.14531156 -0.005529843 0.13402282
0.038761366 -0.0003634256 0.051591773 -0.07577549 -0.018746043 -0.04713433 0.03285945 0.017557018
-0.0825102 0.079883106 -0.09921422 0.096242085 0.015661031 -0.020005886 -0.014770688 0.024860607
0.0053077247 0.15382059 0.14159161 0.17575832 0.096673906 0.003749897 -0.07604525 -0.0656262
0.10723902 -0.013993247 -0.1585492 0.005552876 -0.04168365 -0.12792124 -0.13407256 -0.016143959
0.06326362 0.095381975 -0.126623 -0.1494978 -0.13494071 -0.0070854696 -0.014443987 0.08256929
-0.1438985 0.16085146 -0.052901015 -0.16743933 -0.11146753 0.042886566 -0.03662291 0.12799403
-0.0008327288 0.107577905 0.14656237 -0.06718273 0.014526132 -0.013517452 -0.08083651 -0.16094439
-0.08307096 0.088559546 -0.035010815 -0.1581052 0.0468026 0.06313131 0.03247642 0.14589022
-0.13523605 -0.07265819 -0.011353232 -0.11720891 0.059583142 -0.04581729 0.16585481 -0.058471963
-0.124942936 0.13371551 0.18162495 0.12889342 -0.13902627 -0.09079306 0.07926379 0.16117956
0.123932086 -0.14460208 -0.059515264 -0.010216558 0.08601169 -0.12239964 0.068624765 -0.04137655
0.057506602 -0.029326783 0.16895507 -0.01911065 -0.07952052 -0.02819398 -0.087270394 -0.14606714
0.11652756 -0.10377698 -0.07861554 -0.09399885 -0.0018045633 0.09761783 -0.052246634 0.0010310297
-0.06275181 0.1378915 -0.019418506 0.124345995 -0.04374442 -0.04675219 -0.09189644 -0.12049836
0.104757085 -0.16406146 0.03521194 0.1472084 -0.13361003 0.07266653 0.043719485 0.016779913
0.15695138 -0.1324289 0.103871346 -0.09865549 0.0942567 0.0030552878 0.012861521 -0.1505234
0.020151893 -0.14076535 -0.14688969 0.09896597 0.0015746523 -0.045422688 -0.028113969 0.1403014
-0.0031762994 -0.124046534 0.170802 -0.10914303 0.116995044 0.1365671 0.021375725 -0.17088234
-0.052214548 -0.14741617 -0.15496016 -0.13063389 -0.09385715 -0.16313851 -0.1038642 -0.13965832
00000000: c971 e13c 74e1 f8bd bcee d63d 6233 28be
00000010: a95b 773d d3f8 8fbd 02d0 1a3e 9122 bebd
00000020: 63dd 283e 36c4 03be c775 efbd 3a97 94bc
00000030: 70f5 fbbd 0c1f 933c 8b62 01be 47a6 98bc
00000040: 5c7c b9bc b02d 80bd 791e eb3c 77b1 cdbd
00000050: 6e42 d33d 8e79 4ebd e35d cebd 25bd 53bd
00000060: e872 843d 5ba8 cebd 6cf4 28be 22c5 23bd
00000070: 8574 f5bd 79fb 303e 9d2a 7ebd 7aec 363d
00000080: 625a 9fbd df1f 383b bf00 25bd 72f6 cdbc
00000090: 0b40 063e d69a 983d c38d b7bd c781 c53d
000000a0: f5cf efbd 5fe3 0c3e c25d 24be a7e5 2abe
000000b0: 24a4 313e 0914 c73d fccb 2b3c f3fa 0bbe
000000c0: f23b df3d ca15 98bd 4d00 493d e8ca 173d
000000d0: a0c8 ea3d ec30 23bd 007e 363e c5f8 fdbd
000000e0: 6e30 9cbd d8a8 323e b5c0 1fbe 56b2 5cbd
000000f0: 8427 523d 90cf 903d 1822 68bd 7d09 0ebe
00000100: 98fa 183e 14ee 0abe 354e 2c3e cacb 583c
00000110: 71eb cebd 102e cb3c b1be c2bb 2dab 16be
00000120: 220e 1d3e e06e d3bd 826f 01bd 40ee c1bd
00000130: 3452 1f3d f4b3 f2bd 8b2a 1b3e 1a26 40bd
00000140: 8eec 283e 57fb 483a ea20 e9bc 8769 22be
00000150: 7e47 e33d 11c3 94ba 4af0 0fbe d0e1 ae3d
00000160: a114 dc3c e7fc c5bd 8499 d9bd 860a 12bd
00000170: 6694 a93d fbad 693d 42af dfbd ebe0 fdbd
00000180: 0de2 0e3e 98fe ba3c a1f1 983d 33e6 37be
00000190: 657c b03d 8ecc 143e af33 b5bb 473d 093e
000001a0: 3dc4 1e3d 298a beb9 e551 533d 2e30 9bbd
000001b0: 4d91 99bc ed0f 41bd a197 063d bcd3 8f3c
000001c0: 1cfb a8bd c199 a33d d330 cbbd 921a c53d
000001d0: 904b 803c 62e3 a3bc c100 72bc 79a8 cb3c
000001e0: 6cec ad3b 2583 1d3e 64fd 103e fdf9 333e
000001f0: f8fc c53d d5c0 753b 9dbd 9bbd 0767 86bd
00000200: 22a0 db3d ef43 65bc b95a 22be e6f4 b53b
00000210: 7abc 2abd c9fd 02be 514a 09be 5640 84bc
00000220: 5b90 813d a057 c33d 76a9 01be f415 19be
00000230: e62d 0abe 3a2d e8bb 79a6 6cbc 171a a93d
00000240: 215a 13be 3fb6 243e bcae 58bd 3775 2bbe
00000250: 1749 e4bd d3a9 2f3d e801 16bd de10 033e
00000260: 7c4b 5aba ce51 dc3d 7214 163e 1997 89bd
00000270: 03ff 6d3c 4e78 5dbc 9d8d a5bd 9bce 24be
00000280: 1c21 aabd b55e b53d 8067 0fbd 54e6 21be
00000290: 15b4 3f3d fd4a 813d ff05 053d 3f64 153e
000002a0: 527b 0abe d1cd 94bd e802 3abc 3a0b f0bd
000002b0: 740d 743d e9aa 3bbd d8d5 293e 4c80 6fbd
000002c0: 15e2 ffbd b8ec 083e e4fb 393e a3fc 033e
000002d0: e75c 0ebe b6f1 b9bd 0e55 a23d 410c 253e
000002e0: 1bd0 fd3d 9112 14be 47c6 73bd 5a63 27bc
000002f0: e626 b03d aaac fabd 248b 8c3d 757a 29bd
00000300: 0b8c 6b3d b93e f0bc 8f02 2d3e f08d 9cbc
00000310: a8db a2bd 10f7 e6bc d2ba b2bd a092 15be
00000320: 00a6 ee3d 0689 d4bd 2f01 a1bd 7882 c0bd
00000330: 1987 ecba dbeb c73d 9100 56bd 9e23 873a
00000340: 0584 80bd 6e33 0d3e 8f13 9fbc 1da9 fe3d
00000350: 592d 33bd 397f 3fbd 3334 bcbd d8c7 f6bd
00000360: e28a d63d baff 27be 653a 103d ccbd 163e
00000370: 11d1 08be 31d2 943d 3413 333d 0776 893c
00000380: ddb7 203e 719b 07be 80ba d43d e40b cabd
00000390: a809 c13d 393b 483b 21b9 523c ce22 1abe
000003a0: 9515 a53c cb24 10be 406a 16be acae ca3d
000003b0: 9064 ce3a 240d 3abd 444f e6bc 2cab 0f3e
000003c0: 7629 50bb 1c0c febd b8e6 2e3e 6286 dfbd
000003d0: 199b ef3d 3fd8 0b3e 251c af3c c8fb 2ebe
000003e0: ecde 55bd 44f4 16be e0ad 1ebe e4c4 05be
000003f0: 2d38 c0bd c80d 27be c1b6 d4bd 9702 0fbe

computational.2.bias f4 [32]
-0.017959204 0.16715471 0.06433002 0.14692311 0.00047522248 -0.11610049 0.008004115 0.045044288
0.05834739 0.0046753627 0.0025919403 0.030720428 -0.050533134 0.033689324 -0.120416164 -0.035515327
0.09530938 0.042961545 0.08950168 -0.11773169 -0.060211536 -0.095393434 -0.13107859 -0.068016574
-0.0034043444 -0.012950366 -0.033391815 -0.11166274 -0.022261845 0.038589727 0.12855914 0.10694598
00000000: 2e1f 93bc 9b2a 2b3e 75bf 833d 0373 163e
00000010: 4827 f939 18c6 edbd b123 033c 5c80 383d
00000020: acfd 6e3d c933 993b 8bdd 293b 68a9 fb3c
00000030: d5fb 4ebd d1fd 093d c09c f6bd 8578 11bd
00000040: 9031 c33d 72f8 2f3d a84c b73d 501d f1bd
00000050: 5fa0 76bd a25d c3bd 7739 06be 464c 8bbd
00000060: 6c1b 5fbb c62d 54bc dbc5 08bd 6faf e4bd
00000070: 795e b6bc 4310 1e3d 02a5 033e 7e06 db3d

computational.4.weight f4 [17, 32]
-0.14773329 -0.122988075 0.13944079 0.11445695 0.09812687 -0.09962854 0.144289 -0.16134164
-0.13392055 0.004944338 0.08018222 -0.17397663 0.01869614 -0.007381011 -0.044119038 -0.139888
-0.084744096 0.013025613 0.042194273 0.11087212 -0.081548475 0.16399589 0.063239716 -0.13810156
-0.17724866 0.11885256 0.011613176 -0.017741935 -0.05108859 0.08206301 -0.0677094 -0.129332
0.122765265 -0.077647366 0.10178529 -0.12037 -0.03553717 -0.09715634 0.0038963892 -0.031353176
0.059163276 -0.13625829 -0.16937196 0.13777757 -0.13505915 0.05853111 -0.15201329 0.032348897
-0.0037612135 -0.077988245 -0.0057942998 0.021703845 0.003652192 0.13278277 -0.103034906 0.0822232
0.1579722 -0.12697236 -0.13426274 0.059745725 -0.07022221 -0.0034216633 -0.16400021 0.107979566
-0.011671257 0.0063906 -0.061448753 0.06473996 -0.0028989483 -0.07164901 0.046363927 -0.07608513
0.06527318 -0.16863568 -0.06714169 -0.11740673 0.077181935 -0.120652795 0.12270814 0.0461859
0.10834127 -0.115890436 -0.14001086 -0.029009104 -0.0919353 -0.055961497 0.14761241 0.09320612
-0.0511162 0.107344344 -0.11182706 -0.10272194 0.07083272 0.07944364 -0.04660636 -0.12063348
0.027630081 0.16910787 0.17398389 0.14045021 -0.13256457 0.11115735 0.027636003 -0.15383968
0.008030896 -0.1751344 0.025053382 -0.10129697 -0.12387258 0.003910941 0.091186084 0.09365506
-0.10939504 0.099993356 0.05993295 -0.11800925 -0.04483022 -0.04684439 -0.14862674 -0.16536628
-0.12914896 0.16070373 -0.04652038 0.016968837 -0.154187 -0.03373873 0.06284964 -0.003582279
-0.013891737 0.002028838 0.11886053 -0.12356195 -0.15874867 -0.17288718 0.07804681 -0.10891576
-0.08933381 -0.023377914 0.0871894 0.010501863 0.034753516 -0.04501873 0.080813676 -0.08805093
0.13626291 0.13593514 -0.15933652 -0.05597375 -0.029573917 -0.09149047 0.009823969 -0.06268116
0.14272444 -0.013985325 -0.09108154 -0.08778016 -0.17267805 -0.105432056 0.03857754 0.05339786
-0.07618959 0.005879179 0.08869791 0.026480937 0.019914921 -0.115032464 0.1729495 -0.06261898
-0.00798545 -0.019236133 0.07130353 -0.14229764 0.043224785 -0.13333495 0.11413926 -0.06789574
0.036087118 0.0050547435 -0.06965762 -0.023592519 0.1572058 -0.08423177 -0.044051737 0.11373618
0.103733614 0.048908465 -0.14859205 -0.028514702 -0.18163289 -0.08559023 -0.013795564 -0.06681554
0.07257103 -0.0056659356 0.03478946 0.052217193 0.04267796 -0.17368074 0.03723874 0.13508567
0.038068783 0.12683812 -0.1027302 -0.04304248 -0.16031899 -0.1596895 -0.14614289 0.09094522
-0.10397308 0.040333632 0.12233349 0.06313623 -0.08192708 0.114077814 0.06564288 0.03704369
-0.04442868 0.14043333 0.08346876 -0.031072067 0.07412342 -0.11691779 -0.013605816 -0.14676195
-0.1577503 0.13598739 0.09396778 -0.05389928 -0.09849776 -0.06123834 -0.03540334 -0.040481377
0.13048477 0.17568208 0.085094355 -0.091330975 -0.05583716 0.028209105 -0.123631604 0.16187648
-0.10477819 0.15004282 0.0031258923 0.16016391 0.09657042 0.021175753 0.178308 0.016062379
0.07225716 -0.045590665 -0.14669245 -0.10836453 -0.14972189 0.12604508 0.0839336 0.049802355
00000000: 6547 17be 2ce1 fbbd 91c9 0e3e 6868 ea3d
00000010: bef6 c83d 0c0a ccbd 7fc0 133e be36 25be
00000020: 7822 09be 1d04 a23b 9336 a43d ee26 32be
00000030: a628 993c 68dc f1bb 2ab6 34bd cd3e 0fbe
00000040: 508e adbd 6169 553c e7d3 2c3d ec10 e33d
00000050: e302 a7bd 8aee 273e d383 813d 7f6a 0dbe
00000060: ac80 35be f968 f33d 3145 3e3c 8957 91bc
00000070: 4542 51bd a710 a83d 3aab 8abd 9c6f 04be
00000080: 5b6c fb3d 9505 9fbd ce74 d03d 8c84 f6bd
00000090: 6c8f 11bd e7f9 c6bd 905a 7f3b 306c 00bd
000000a0: 3155 723d 4b87 0bbe d86f 2dbe 9015 0d3e
000000b0: f24c 0abe 51be 6f3d 5fa9 1bbe 4780 043d
000000c0: b17e 76bb 4db8 9fbd 1cde bdbb 43cc b13c
000000d0: 9d59 6f3b 35f8 073e f703 d3bd a364 a83d
000000e0: 77c3 213e 0b05 02be 2c7c 09be efb7 743d
000000f0: a9d0 8fbd fc3d 60bb acef 27be 6424 dd3d
00000100: cd38 3fbc 3d68 d13b b0b1 7bbd 6296 843d
00000110: 48fc 3dbb b7bc 92bd 1ae8 3d3d 85d2 9bbd
00000120: f2ad 853d d5ae 2cbe 9581 89bd f172 f0bd
00000130: 9011 9e3d d018 f7bd 684e fb3d 6d2d 3d3d
00000140: 07e2 dd3d f757 edbd 025f 0fbe 80a4 edbc
00000150: 9348 bcbd e237 65bd b527 173e dae2 be3d
00000160: 385f 51bd 5ad7 db3d 9605 e5bd e15f d2bd
00000170: bf10 913d 59b3 a23d 4fe6 3ebd b00e f7bd
00000180: 7b58 e23c 9d2a 2d3e d528 323e 2ed2 0f3e
00000190: 02bf 07be 77a6 e33d e664 e23c 2688 1dbe
000001a0: 0594 033c 6f56 33be c03c cd3c c974 cfbd
000001b0: e8b0 fdbd 5a27 803b c5bf ba3d 39ce bf3d
000001c0: 820a e0bd 51c9 cc3d 417c 753d d5ae f1bd
000001d0: e59f 37bd e7df 3fbd 9c31 18be c755 29be
000001e0: a03f 04be 858f 243e 278c 3ebd 3b02 8b3c
000001f0: 32e3 1dbe 9f31 0abd 50b7 803d abc4 6abb
00000200: 2b9a 63bc 41f6 043b 266d f33d 0c0e fdbd
00000210: 038f 22be 5609 31be 02d7 9f3d 3a0f dfbd
00000220: a5f4 b6bd 0a83 bfbc 5b90 b23d 0210 2c3c
00000230: b459 0e3d 8f65 38bd a481 a53d 0c54 b4bd
00000240: 8188 0b3e 9532 0b3e 1d29 23be bb44 65bd
00000250: 0045 f2bc 5b5f bbbd b6f4 203c fb5e 80bd
00000260: 5b26 123e b422 65bc f588 babd 16c6 b3bd
00000270: 84d2 30be c3ec d7bd 7c03 1e3d b7b7 5a3d
00000280: 4a09 9cbd 21a6 c03b 40a7 b53d 8dee d83c
00000290: 9e24 a33c 2496 ebbd ac19 313e 613e 80bd
000002a0: 68d5 02bc 1895 9dbc 9607 923d 79b6 11be
000002b0: 790c 313d f588 08be d8c1 e93d ec0c 8bbd
000002c0: 16d0 133d 43a2 a53b a7a8 8ebd 1945 c1bc
000002d0: 8ffa 203e b581 acbd 986f 34bd 84ee e83d
000002e0: 4a72 d43d 3e54 483d 8428 18be aa97 e9bc
000002f0: f9fd 39be ee49 afbd ca06 62bc 96d6 88bd
00000300: 1fa0 943d 50a9 b9bb 657f 0e3d b2e1 553d
00000310: 16cf 2e3d 5dd9 31be a687 183d e653 0a3e
00000320: 03ee 1b3d dae1 013e 3664 d2bd 504d 30bd
00000330: a92a 24be a585 23be 7ba6 15be 7d41 ba3d
00000340: d7ef d4bd e134 253d fb89 fa3d 914d 813d
00000350: 63c9 a7bd a1a1 e93d c66f 863d 20bb 173d
00000360: d9fa 35bd c1cd 0f3e abf1 aa3d d98a febc
00000370: 05ce 973d 9872 efbd eeea 5ebc c448 16be
00000380: 4b89 21be 4740 0b3e 2e72 c03d 7ec5 5cbd
00000390: 32b9 c9bd 0ed5 7abd 1803 11bd cdcf 25bd
000003a0: cd9d 053e 01e6 333e f345 ae3d bc0b bbbd
000003b0: 82b5 64bd c816 e73c 9132 fdbd f3c2 253e
000003c0: f395 d6bd d3a4 193e c5db 4c3b 0202 243e
000003d0: b6c6 c53d c678 ad3c 5f96 363e 4095 833c
000003e0: 90fb 933d 47bd 3abd 8c36 16be 39ee ddbd
000003f0: b250 19be f611 013e 61e5 ab3d 8efd 4b3d

computational.4.bias f4 [17]
0.098426014 0.072263144 -0.054096535 0.10762742 -0.0383052 -0.035981607 0.12534624 -0.03202595
-0.0063409805 0.16881305 0.17102262 0.030541776 0.13119371 -0.04140677 -0.09248652 0.14590663
0.06872819
00000000: 9493 c93d b3fe 933d 5494 5dbd c46b dc3d
00000010: eae5 1cbd 7361 13bd c45a 003e a42d 03bd
00000020: 00c8 cfbb 54dd 2c3e 8e20 2f3e bf32 fa3c
00000030: a557 063e 259a 29bd 9369 bdbd 8c68 153e
00000040: 5ec1 8c3d

memory.lookup_table.weight f4 [289, 17]
0.56611526 0.04510285 -0.029201208 -0.102748625 0.06073123 -0.23280533 -0.07526446 0.14818735
0.267492 0.06635775 -0.0579537 -0.0530249 -0.04895766 -0.032989994 -0.09552898 -0.0008326841
-0.047399927 0.038548302 0.49331543 -0.05753841 0.028964506 0.02466434 0.00520302 0.120515466
-0.018489925 -0.019930407 -0.10526731 0.043686576 -0.0660543 0.03985855 0.06857519 -0.025168797
-0.12684052 -0.17232333 0.012837615 0.106905185 0.58372194 -0.22407588 0.06994835 0.018958777
-0.09625796 -0.098288566 -0.062435847 -0.1926335 0.029395096 -0.0007011654 0.0017343325 0.06073021
-0.050577883 0.034899186 0.02642132 0.09274695 -0.09004972 -0.08106446 0.5671564 0.072327755
-0.08381344 -0.12497004 -0.05767144 -0.03558902 0.061812125 -0.20591235 0.03573792 0.039618067
0.09357082 -0.10466103 0.084297895 -0.051150925 0.09401718 -0.023539241 0.12691799 0.11814606
0.39387488 -0.12372068 0.06910263 0.05339364 -0.05025936 -0.28578585 -0.028307945 -0.023954272
0.07579914 0.069686614 -0.04093635 0.113172375 -0.06571861 -0.11812818 -0.0072222506 -0.041869685
-0.054585822 -0.04392422 0.65370977 -0.03202349 0.047497578 0.12082203 0.14474863 0.1144476
-0.0529367 -0.0061776675 -0.069341525 0.044934493 0.18980761 0.026153518 0.0016484193 -0.0643921
-0.079723336 0.081705585 -0.10868486 0.057964362 0.379118 -0.10703529 -0.03750789 0.17929648
0.057148103 -0.18184528 0.010356946 -0.0005428825 -0.08252808 -0.11652424 -0.025955202 0.1999889
-0.12557057 0.12929967 -0.027574666 0.056908417 -0.05471036 0.1445947 0.43887404 0.07854072
0.015485408 -0.01713624 0.06287072 -0.045701955 -0.16309391 -0.14667203 -0.009568884 -0.15439817
0.005603297 -0.15774567 0.04468577 0.05012603 -0.08595981 -0.1254322 -0.011922512 -0.076316014
0.36916205 0.054879665 -0.100659624 0.14430876 0.06445902 -0.038708225 -0.11248247 0.11658259
-0.028375495 0.011368349 0.0031339803 -0.019863429 -0.07626717 0.039845616 -0.015070757 -0.05113451
-0.14651191 0.056144837 0.5298738 0.03282557 0.17536952 0.12373498 0.016556391 -0.028698906
-0.11173775 -0.04496459 -0.016365662 0.053910535 -0.080336906 0.07120247 0.15175918 0.051919267
-0.09358735 -0.12737972 0.10716712 0.075840324 0.49240983 -0.02303622 -0.045078147 -0.092816964
0.11983407 -0.0067119254 -0.04395206 -0.027013412 -0.06878102 -0.2450484 -0.07544127 0.02840129
-0.0018608909 -0.12755913 0.09792573 -0.14589545 0.009658798 -0.2701513 0.5063694 -0.07925836
-0.18737344 -0.031984102 0.11133329 -0.19684264 -0.1904703 0.029717267 0.0038528726 -0.17977741
0.10759556 -0.12783682 0.03518839 -0.22597973 0.016422357 -0.035514735 -0.12817411 0.005245746
0.5293857 -0.055673867 -0.23071352 -0.035631403 -0.25328565 -0.01946413 -0.018871082 -0.0059444937
-0.12274921 0.055760227 0.06757015 -0.11863239 -0.07409787 0.085285455 0.2224259 -0.102224834
0.20147341 -0.07515258 0.66282344 0.20439985 0.04946481 -0.067396365 -0.026302485 -0.036687817
-0.23109223 -0.06355387 -0.052608278 -0.09518441 -0.052962214 -0.124392115 -0.04846532 0.016148942
-0.0069067976 0.018855134 -0.090707 0.08933362 0.49244025 -0.0069423076 0.052983187 -0.009015583
00000000: eeec 103f c4bd 383d 5f37 efbc df6d d2bd
00000010: 4fc1 783d 8564 6ebe 4124 9abd 6dbe 173e
00000020: b6f4 883e 92e6 873d dc60 6dbd a330 59bd
00000030: d487 48bd 8420 07bd b3a4 c3bd 7c48 5aba
00000040: 6d26 42bd d3e4 1d3d d793 fc3e 65ad 6bbd
00000050: f946 ed3c df0c ca3c 187e aa3b d0d0 f63d
00000060: 2f78 97bc 1845 a3bc 6396 d7bd b2f0 323d
00000070: 7a47 87bd b842 233d 2671 8c3d cb2e cebc
00000080: 7be2 01be 8775 30be dc54 523c 1bf1 da3d
00000090: cd6e 153f 2674 65be 1541 8f3d 704f 9b3c
000000a0: e522 c5bd 844b c9bd bbbc 7fbd b741 45be
000000b0: fccd f03c 6ace 37ba 8b52 e33a 3ec0 783d
000000c0: c12a 4fbd 73f2 0e3d 8671 d83c 1df2 bd3d
000000d0: fd6b b8bd 2005 a6bd 2931 113f 9320 943d
000000e0: 61a6 abbd 4bf0 ffbd e338 6cbd cbc5 11bd
000000f0: b62e 7d3d b0da 52be ed61 123d 8e46 223d
00000100: 0fa2 bf3d 8658 d6bd 60a4 ac3d a283 51bd
00000110: 148c c03d 5ed5 c0bc caf6 013e 90f6 f13d
00000120: f8a9 c93e 4561 fdbd ae85 8d3d 4ab3 5a3d
00000130: c2dc 4dbd 8652 92be 10e6 e7bc c03b c4bc
00000140: 943c 9b3d dbb7 8e3d e0ac 27bd ebc6 e73d
00000150: 7b97 86bd 30ed f1bd a1a8 ecbb 8c7f 2bbd
00000160: 6295 5fbd e2e9 33bd 8659 273f 102b 03bd
00000170: d28c 423d 8a71 f73d fc38 143e 8163 ea3d
00000180: 27d4 58bd 086e cabb ee02 8ebd 3b0d 383d
00000190: ed5c 423e e73f d63c c60f d83a 01e0 83bd
000001a0: fd45 a3bd 4255 a73d 2b96 debd 0a6c 6d3d
000001b0: c11b c23e 5135 dbbd e0a1 19bd 7f99 373e
000001c0: 2114 6a3d a635 3abe 2eb0 293c 3a50 0eba
000001d0: 7b04 a9bd 43a4 eebd 01a0 d4bc e4c9 4c3e
000001e0: 9295 00be 2267 043e 44e4 e1bc cd18 693d
000001f0: f817 60bd a210 143e 19b4 e03e f5d9 a03d
00000200: 82b6 7d3c 4d61 8cbc 5dc2 803d f931 3bbd
00000210: 1702 27be 3131 16be cfc6 1cbc 8e1a 1ebe
00000220: dd9b b73b 1588 21be 6d08 373d f450 4d3d
00000230: b20b b0bd 4c71 00be a456 43bc 924b 9cbd
00000240: cf02 bd3e 80c9 603d a226 cebd adc5 133e
00000250: 1703 843d 848c 1ebd 365d e6bd dac2 ee3d
00000260: ba73 e8bc 5042 3a3c 7763 4d3b a1b8 a2bc
00000270: f631 9cbd 2835 233d 56eb 76bc 6c72 51bd
00000280: 3807 16be 21f8 653d cfa5 073f 1b74 063d
00000290: 1194 333e c468 fd3d 45a1 873c f819 ebbc
000002a0: c3d6 e4bd ca2c 38bd 4811 86bc 4bd1 5c3d
000002b0: ad87 a4bd 9ad2 913d c266 1b3e 4ca9 543d
000002c0: b9aa bfbd d46f 02be 6f7a db3d 2c52 9b3d
000002d0: 241d fc3e 74b6 bcbc dda3 38bd d216 bebd
000002e0: 916b f53d b6ef dbbb 1307 34bd 3b4b ddbc
000002f0: 10dd 8cbd f8ed 7abe f480 9abd d2a9 e83c
00000300: 23e9 f3ba dc9e 02be 498d c83d 9e65 15be
00000310: ef3f 1e3c 4551 8abe 6da1 013f 3552 a2bd
00000320: d3de 3fbe c301 03bd b502 e43d 1e91 49be
00000330: a50a 43be a071 f33c 7a80 7c3b 9217 38be
00000340: 105b dc3d a8e7 02be b421 103d 3b67 67be
00000350: 2e88 863c e677 11bd 1340 03be 82e4 ab3b
00000360: d285 073f 480a 64bd 2a40 6cbe 3cf2 11bd
00000370: a8ae 81be 3d73 9fbc 8797 9abc 07ca c2bb
00000380: f063 fbbd d664 643d 3862 8a3d 8af5 f2bd
00000390: a0c0 97bd 24aa ae3d 9dc3 633e 415b d1bd
000003a0: 0c4f 4e3e 99e9 99bd ccae 293f 324e 513e
000003b0: 9d9b 4a3d 1b07 8abd 4f78 d7bc f745 16bd
000003c0: 71a3 6cbe 8828 82bd c77b 57bd 0bf0 c2bd
000003d0: e8ee 58bd 4bc1 febd 9283 46bd c94a 843c
000003e0: 6b52 e2bb 1576 9a3c 97c4 b9bd 8cf4 b63d
000003f0: 2121 fc3e 4c7c e3bb e604 593d 19b6 13bc

gate.0.weight f4 [32, 2]
0.5476815 0.63064784 0.59410495 0.33370078 0.031650446 0.5773083 0.47301185 -0.57446426
0.32031286 0.74704456 -0.24703589 -0.077776484 -0.15584671 0.33275765 0.7271934 0.02981626
-0.4732923 0.25641134 0.11091375 -0.3517418 0.60502845 0.11339429 0.09805057 0.283625
-0.24484396 0.4446572 -0.6648103 0.466712 0.67547596 0.5678118 -0.25087935 -0.31599152
-0.5878999 -0.063378274 0.28489625 -0.48697358 0.3423565 -0.12468345 -0.16803116 -0.3117713
0.52168053 -0.256144 -0.19213253 -0.555514 -0.47687057 -0.57581145 -0.09996919 0.5864028
-0.3145703 -0.62636024 0.50530106 0.22094838 0.28746736 0.5987836 -0.4454732 -0.6959594
0.48057142 -0.21120562 -0.60593987 0.6806076 -0.22055167 0.31375805 0.00016261157 -0.553869
00000000: db34 0c3f 2372 213f 4317 183f d4da aa3e
00000010: e6a3 013d 7aca 133f 9c2e f23e 1710 13bf
00000020: 0c00 a43e 503e 3f3f faf6 7cbe 4749 9fbd
00000030: 4896 1fbe 365f aa3e 5929 3a3f 3b41 f43c
00000040: 5e53 f2be 5948 833e c026 e33d 8017 b4be
00000050: 25e3 1a3f 443b e83d bdce c83d 4c37 913e
00000060: 60b8 7abe 1caa e33e 0231 2abf e0f4 ee3e
00000070: feeb 2c3f 1d5c 113f 4273 80be a4c9 a1be
00000080: 9c80 16bf 78cc 81bd ecdd 913e 9a54 f9be
00000090: 5a49 af3e 095a ffbd 5c10 2cbe 7da0 9fbe
000000a0: db8c 053f 4e25 83be 64be 44be 2a36 0ebf
000000b0: 6128 f4be 6168 13bf a6bc ccbd 7e1e 163f
000000c0: 5c0f a1be 2559 20bf 695b 013f 4b40 623e
000000d0: ec2e 933e e249 193f 1015 e4be 652a 32bf
000000e0: 750d f63e 4946 58be e01e 1bbf 4d3c 2e3f
000000f0: 4cd8 61be e5a4 a03e b682 2a39 5cca 0dbf

gate.0.bias f4 [32]
-0.181267 0.120921694 -0.08379014 0.6139272 -0.056746528 -0.5719953 0.31099403 0.54059327
-0.15170081 0.3382587 0.31980336 0.110838056 0.47815654 0.08081007 0.5723867 -0.66401035
-0.310162 0.50442785 0.34036332 0.43333322 -0.3259345 0.4756336 -0.14822844 0.5971869
0.30676222 0.4928863 -0.22021961 -0.17960668 0.62864983 0.67021644 0.43455464 0.11214974
00000000: 0e9e 39be cba5 f73d 2a9a abbd 552a 1d3f
00000010: 0c6f 68bd 496e 12bf 9c3a 9f3e 5264 0a3f
00000020: 7557 1bbe 3f30 ad3e 44bd a33e 10ff e23d
00000030: efd0 f43e c07f a53d ef87 123f 95fc 29bf
00000040: 8ecd 9ebe 2f22 013f 1a44 ae3e dadd dd3e
00000050: e3e0 a6be 3f86 f33e 32c9 17be 3ee1 183f
00000060: f00f 9d3e 985b fc3e 4081 61be d0ea 37be
00000070: 32ef 203f 4e93 2b3f f27d de3e c3ae e53d

gate.2.weight f4 [1, 32]
0.009207397 0.012176125 -0.1125081 0.029621607 0.13770536 -0.059949063 0.046430867 0.066819884
-0.119628936 0.032984346 -0.0787339 0.02219203 0.070258066 0.18180293 0.092043474 -0.13921276
-0.1605938 0.15518638 -0.04177569 -0.06840727 0.039574474 -0.0012289727 -0.056544565 0.02790144
0.054131575 0.17044993 0.14085805 -0.071771145 0.11513391 0.02350986 0.132038 0.048811685
00000000: 9fda 163c 5f7e 473c a66a e6bd 03a9 f23c
00000010: a202 0d3e 268d 75bd 4b2e 3e3d ddd8 883d
00000020: 0400 f5bd 981a 073d 3d3f a1bd 0fcc b53c
00000030: 76e3 8f3d 8c2a 3a3e 4a81 bc3d ca8d 0ebe
00000040: b372 24be 2ee9 1e3e fc1c 2bbd 1c19 8cbd
00000050: d818 223d 7b15 a1ba 469b 67bd 9091 e43c
00000060: 12b9 5d3d 6d8a 2e3e 183d 103e c0fc 92bd
00000070: 54cb eb3d c097 c03c f834 073e c3ee 473d
