models/successful/HybridMemory_AdamW_p23.pt (torch, 62017 bytes, 10 tensors)

computational.0.weight f4 [32, 2]
00000000: 2210 e73e 724b 63be 9171 063f 3e43 25bf
00000010: 065e f5be c0e9 d13e 6ee2 5dbe bda4 cebe
00000020: 5312 0ebf e52e f4be 895f 103f 360d 1abe
00000030: 0e5a e1be 1eec 333f 4631 edbd e475 a53e
00000040: 3c0d 073f 9479 16bf b079 313f 32d4 5dbe
00000050: acc3 0fbf 4328 293f 30d7 fc3e cfe8 383f
00000060: 36e4 2bbf a35c 21bf c7dc d0be b47e 513d
00000070: 5d6d 34bf 5777 25bf a275 88be dbf9 0c3f
00000080: 668a 233d eceb 0bbf d3f8 06bf a9ea e2be
00000090: b075 03bf 1a6b 94be 8c5d c13e a2bf 2ebd
000000a0: 2b56 2bbf 018a 1dbf de64 24bf 402b 303f
000000b0: fd6a 193f e4ba 2b3f 820b d13e 4e4d e8be
000000c0: af52 9bbe e283 41be 6516 913e 0774 4ebd
000000d0: 2e22 0cbe 44e2 103f d082 6a3e 9917 973d
000000e0: d38d 14be aeaa 093f 966a a63d 35ab 003f
000000f0: c30c e4be e13f c3bd 7374 123f 33ab f43e
0.45129496 -0.22196749 0.5251704 -0.6455573 -0.47923297 0.4099865 -0.21668407 -0.4036006
-0.5549671 -0.47692028 0.56395775 -0.15044102 -0.4401402 0.7028216 -0.11581664 0.32316506
0.5275457 -0.58779263 0.69326305 -0.21662977 -0.56157947 0.6607706 0.49382925 0.7223024
-0.671451 -0.6303198 -0.4079344 0.051146224 -0.70479375 -0.64635223 -0.26652247 0.5506875
0.03992691 -0.54656863 -0.52723426 -0.44319656 -0.5135145 -0.28987962 0.37766683 -0.042663224
-0.66928357 -0.615387 -0.6421641 0.68815994 0.59928876 0.6708205 0.40829092 -0.4537148
-0.3033652 -0.18897966 0.28337398 -0.05040362 -0.13684914 0.56595254 0.22901464 0.07377548
-0.14507227 0.5377606 0.081257984 0.5026124 -0.44540986 -0.09533668 0.5720894 0.47786865

computational.0.bias f4 [32]
00000000: 2047 493f a424 47be 79a0 d33e 7392 e93e
00000010: 1ebd b73e 51e8 aa3e 7108 8cbd b1ff 323f
00000020: 2bb4 a83d 0454 02be ef85 513e 931d a03e
00000030: 81f2 1c3f 0003 b1be 2d4c 233e 4007 a23d
00000040: ba4a 523e 2f9e 933e 780b f7be 1b4f 01bf
00000050: 962e 74bd 669a 92be 796d ad3e 51c0 0fbe
00000060: 2bcf fcbe df69 e7bd c480 25be 9719 b43e
00000070: 9702 353f 1677 0a3f 56d8 3dbe 4f26 7f3e
0.78624153 -0.19447571 0.41333368 0.45619544 0.35886472 0.33380368 -0.068375476 0.69921404
0.08237489 -0.12727362 0.20461248 0.31272563 0.6130753 -0.345726 0.15947028 0.07911539
0.20536318 0.28831622 -0.48250937 -0.5051133 -0.05961474 -0.28633422 0.33872584 -0.14038207
-0.49376807 -0.1129949 -0.16162401 0.35175774 0.70707077 0.5408796 -0.18539557 0.24916957

computational.2.weight f4 [32, 32]
00000000: 1e58 9e3e 8433 603d 7400 b1bc 1ca5 a8bd
00000010: a9f1 013e cb74 863d cd66 693e 4397 983e
00000020: ba95 1a3c 2ac5 d63d 4a91 363e 468f a63e
00000030: 4ef8 02be f1e9 113e e23d 7cba 2be0 3a3e
00000040: 6dc4 433e 701c db3d f090 28bd b65e c43d
00000050: fe2b ba3c 7a0c 3dbc a017 153e b87f 913e
00000060: ba1f b6bd 3c88 4c3e 4cb2 693d c0d4 b43e
00000070: 710b 683d 809a 133e 86e1 e2bd 35ee 213c
00000080: f747 1fbe fca5 513d 7b17 a0bd 6edd 2ebd
00000090: 8635 ac3d ffc1 84bd a7f7 7bbc b48e 013e
000000a0: 2296 013d 5426 24be 4a69 07be aafa 833d
000000b0: f284 0ebe 1cfe bd3d 3160 203d 7b88 16bd
000000c0: 77e3 3e3c 7130 12be 6600 063e 21f2 98bd
000000d0: ce43 e83d 9585 fe3d b359 91bd 84cd 33be
000000e0: 7cee 89bd 40f3 533d 05bf f7bd 58cb 103e
000000f0: e1be 0dbe f4a6 3fbd 4ee9 0ebe 33b8 37bc
00000100: f162 30bd e3e4 163d 3602 f03d 1eb6 843e
00000110: e1a4 923d deb2 493d 5be8 72bc 3b9d 313e
00000120: 7399 e93d 4db4 90bd 9cfa a13d 788e 4bbd
00000130: c10d 5a3e 6ff6 c4bd 3c7f b1bc 4f9c 8a3d
00000140: 5bf4 d4bc 6ed5 dcbd 3fcc f03c fc51 3fbd
00000150: b41d 303e 5cab 1ebc cbd6 73bc e306 cb3d
00000160: 718a 2b3e 5b4b 28bd 9dc1 b8bd 0a85 29bd
00000170: 4ad4 57bd 1e73 0e3e 6bc5 ca3c 81f6 b7bd
00000180: 076e 08be e9d1 493d af8c 26be 9986 013e
00000190: b84f e33d 0c93 fcbd a5fb 87bc 06e9 8b3d
000001a0: 3607 b8bd 9a54 02be e0d7 bfbc e2fa 073e
000001b0: ed28 f2bd 341e 58bc c6ff f33d 9474 dd3d
000001c0: edae 63bd daf9 0a3e 370f 91bd dd85 08bd
000001d0: 943b 673c 38c2 26bc 3416 fe3c 81ec 013e
000001e0: ff5f 45bd f83d debc 0ad6 1cbe 05a7 c63d
000001f0: 2b71 07be a7d5 e0bd c676 b53d afe7 bdbd
00000200: 51a1 8d3d 6b46 bd3c 8866 37bd a923 b83d
00000210: 574a 8bbd 41ea b7bc 14ad 363e 047d 3a3e
00000220: ad80 163e 5337 1bbe dfa2 b9bd be25 b4bd
00000230: 4620 263e 21e6 00bb b180 2e3d 9327 08be
00000240: 5533 ca3d 4d80 473b a0b3 98bd 0bcf 84bd
00000250: 3200 08be ce20 093e ee85 b63b 4c04 c13b
00000260: bf94 2fbe ce05 09be ec97 173e 148b 6ebd
00000270: 1211 bd3d aca9 223e 18ef 4ebd 952a 1b3c
00000280: bc6c ea3d 3e45 e33d dc8b 3b3d 7a55 803e
00000290: e02f 463e 15d1 84bd 1462 803d 3d65 c43d
000002a0: 8e68 be3d ebb7 a3bd d62c e6bd b0ea cd3d
000002b0: da09 44bd 175a a53d 5067 023e 4ef9 1b3e
000002c0: d9f6 693c e239 df3c ad91 77bc 0622 49bb
000002d0: cfd0 8dbd b200 40bd c89b 0abe 234f f1bd
000002e0: b20a e63d 50e6 793d efa0 eb3c 0124 793e
000002f0: d61f 033e ddb5 86bc 4109 073e 00b5 2e3d
00000300: ccaa a53d 5316 72bd 6248 843d 209d 3a3c
00000310: a879 563c b69c aabd 068e 053e b3d0 f63c
00000320: 13c1 0b3e 46d7 993d e466 853d c5ac df3d
00000330: 554c 163d 19e8 ec3d 3822 01be 6afe c0bb
00000340: e09c 503e 90c3 183d 51f3 88bd 4a6f 963d
00000350: 5c41 1c3e 4df9 eabb 9f1f 843c e46e d6bd
00000360: 0505 db3c 164b ecbd 4969 97bd a150 37bb
00000370: dc4d 343e d174 153e a330 39bd 90c2 c03d
00000380: 4567 443e e6db 4a3e 2dc8 423e 0547 0f3c
00000390: 3872 39be ff3a 713d cd55 4bbd a5b5 cfbd
000003a0: 1765 1e3e 768f cd3d c254 e5bd 8f32 dd3c
000003b0: f25c d93d 084c f8bd 2db0 18be d4eb 053e
000003c0: 80ff 1abe e231 26be 6d48 123e 6914 093e
000003d0: 57f8 f23d c24a 15be 0f68 053e 7b36 46bd
000003e0: 1f92 00bd bc37 c1bd 164a 993d 05b3 efbc
000003f0: 7ee2 9e3d d508 23bd 8771 a6bc 159d 0fbe
0.30926603 0.05473663 -0.021606661 -0.08234617 0.12689842 0.06565245 0.22793122 0.29802904
0.009435112 0.10486825 0.17828861 0.32531184 -0.12790033 0.14249398 -0.00096222584 0.18249576
0.19117899 0.106987834 -0.04115385 0.09588377 0.022726055 -0.011538619 0.14559793 0.28417754
-0.0889277 0.19973844 0.057054803 0.35318565 0.056651536 0.14414406 -0.110781714 0.009883453
-0.15554796 0.051183686 -0.078169785 -0.04269164 0.08408646 -0.06482314 -0.015378869 0.12652093
0.03163732 -0.16030246 -0.13223758 0.06444295 -0.13917902 0.09276983 0.039154235 -0.03675125
0.0116509115 -0.14276291 0.1308609 -0.074680574 0.11341058 0.124278225 -0.07097187 -0.17558867
-0.067349404 0.051745653 -0.12096981 0.1414007 -0.13842346 -0.04679008 -0.13956186 -0.01121335
-0.043063108 0.036839377 0.11719172 0.25920194 0.071603544 0.049242847 -0.014825906 0.17345135
0.11406221 -0.0706564 0.07909128 -0.049696416 0.21294309 -0.09617316 -0.021667115 0.06768095
-0.025995424 -0.10782896 0.029394267 -0.046709046 0.17198831 -0.00968441 -0.014882754 0.09913423
0.1675203 -0.04108749 -0.09021304 -0.04138664 -0.05269269 0.13911101 0.02475234 -0.08982564
-0.13323222 0.04927245 -0.16264604 0.12649001 0.110991895 -0.123327345 -0.016599486 0.06831555
-0.089857504 -0.12727585 -0.023418367 0.13279298 -0.11824212 -0.013190795 0.11914019 0.10813251
-0.055586744 0.13571873 -0.0708298 -0.033330787 0.014113326 -0.010178141 0.031016447 0.12687875
-0.048187252 -0.027129158 -0.15316024 0.09699825 -0.13226764 -0.10978251 0.08860545 -0.09272706
0.06915534 0.023104867 -0.044775516 0.08991177 -0.068012886 -0.022450568 0.17839462 0.18211752
0.14697523 -0.15157823 -0.09064268 -0.08796261 0.16223249 -0.0019668418 0.0426032 -0.13296346
0.09873072 0.0030441463 -0.07456136 -0.06484803 -0.13281325 0.1339142 0.005570165 0.005890405
-0.17146586 -0.1338112 0.14804047 -0.058238104 0.092317715 0.15885037 -0.050520986 0.009470602
0.11446521 0.11097191 0.045787677 0.25065213 0.193542 -0.06485192 0.06268707 0.09589622
0.09297286 -0.07994064 -0.112390205 0.10054529 -0.047860958 0.08073824 0.12734723 0.15231821
0.0142800445 0.02724928 -0.015110415 -0.0030690446 -0.06924593 -0.046875663 -0.13535988 -0.11782672
0.11232509 0.06101066 0.028763263 0.2433014 0.12805113 -0.016444141 0.13187124 0.042653084
0.080892175 -0.05910332 0.064591184 0.011390001 0.013090529 -0.083306715 0.13042459 0.030128812
0.1364787 0.07511763 0.065137655 0.10921625 0.03669389 0.115677066 -0.1261071 -0.0058897035
0.20372343 0.037295878 -0.06687034 0.073454455 0.15259308 -0.0071708323 0.01612836 -0.104703695
0.026735792 -0.11537759 -0.073931284 -0.0027971643 0.17607826 0.14595343 -0.0452124 0.0941211
0.19180019 0.19810447 0.19021674 0.00874496 -0.18109977 0.058894154 -0.049642373 -0.10142068
0.1546825 0.100371286 -0.11197807 0.027001647 0.10613431 -0.12123877 -0.14910956 0.13078243
-0.15136528 -0.16229966 0.1428544 0.13386692 0.11863773 -0.14579299 0.13027976 -0.0483918
-0.031389352 -0.094344586 0.07484834 -0.029260168 0.07758044 -0.039803345 -0.020317806 -0.14024766

computational.2.bias f4 [32]
00000000: c16c 863e 100d 0f3e cdaf 333e 1aa0 d93d
00000010: e0cf da3d bc83 203e 85d2 173e f5ab 01be
00000020: af79 9f3d 94a1 c23b 3dff 9dbd a312 92bd
00000030: 2186 383d 1e02 273d 0e91 dbbd 92c4 013d
00000040: 5c64 d6bd cdcd 36bd 04ab 1e3e bdc7 403e
00000050: 95ac 12be f2ee c53d 30c5 963d e7cc e53d
00000060: 79c9 7d3d 9c35 403d 10a8 23be a771 023e
00000070: abce a0bc 55f1 e3bd 90fd 04be 4317 9dbd
0.26254848 0.13969827 0.17547531 0.1062624 0.1068418 0.15675253 0.148264 -0.12663253
0.07786881 0.005939672 -0.077146985 -0.07132461 0.04504979 0.040773503 -0.10721026 0.031681605
-0.10468361 -0.04462986 0.15494925 0.18826194 -0.14323647 0.09664716 0.07361829 0.11220723
0.061959717 0.046926126 -0.1598208 0.12738667 -0.019629797 -0.11130015 -0.12987351 -0.076704524

computational.4.weight f4 [23, 32]
00000000: 88a5 25be ba39 1abe b54e c23d 83f9 083d
00000010: cafb b83c 4cbe 3c3e 6b25 123d 7dc8 e8bd
00000020: 1e4c 29be 8f43 273e 8e34 9fbd 8377 fd3d
00000030: 8f5f d1bc 9302 723d 3de7 4bbe 8f0a f73c
00000040: a215 003e 2542 2bbe cd2b c9bd f849 61bd
00000050: de6a 453b 3570 22be b5be aa3d c63f 30be
00000060: 7348 eb3c 4d2f 0cbd 34c2 843d b7d9 133e
00000070: 24ee 003e 7179 08be 8cf4 2d3e 3a5e 02bc
00000080: 1734 273e a176 cdbd f58c 3c3e e5cb 2b3e
00000090: 473d e3bc cb2a 5b3e 15c7 0e3e 01c8 14be
000000a0: 5ecf db3d accc b03d 39ad 143e 472b af3c
000000b0: 20c7 633d 2b1b b13d 5253 00be a49a 94bd
000000c0: 0a81 dd3d 934c a23d 7cff 9cbd 5201 9a3d
000000d0: 3126 4f3d 7250 b13d 4502 abbd dc38 e3bd
000000e0: bdb7 bdbd 413d 483d d236 1fbe 6e55 a4bd
000000f0: 82b5 31be e5eb dd3c eddb 053e 918f 303e
00000100: 577d 8f3d a700 42bc f3ec f83d a286 1abe
00000110: c4e6 e53d ac43 a4bd a344 cdbd d1ed 34bd
00000120: a024 23bd f823 dd3d bbbf 2cbe a269 f33d
00000130: 2c38 263e e59e 1cbd 4ddd 063c fba5 83bd
00000140: 270e d13d 7554 fa3d 34b4 333e 8afc 733d
00000150: 23be c0bd 3451 5c3d 5d76 0f3d 55e4 b7bd
00000160: 0fb4 f3bd 781c d2bd 4254 dfbd 472c 32bd
00000170: 339b 85bd 391a 92bd 4818 efbd e482 b1bd
00000180: 6875 5e3e 7122 3d3d 3f0b d4bc 0339 963d
00000190: 5dd7 f9bd 0672 b23d 3ae9 343e b4b0 6f3c
000001a0: 465c bbbd d76d 3bbe 90ca f5bd 2981 743d
000001b0: 27bf 1bbe f192 50bc 017b a3bd ae11 dd3d
000001c0: 41f8 11be f834 e83c 1a9e 7d3d 61b6 943b
000001d0: fb08 1dbd 97c2 173d 19cb 0a3d 988f 133e
000001e0: f0c0 1abe 6385 b63d d498 56bc 0da4 173e
000001f0: 55de cd3a 6617 283b 2b59 2ebe a85b bc3d
00000200: d8c1 dc3d 0d2e bb3c 0fad abbd 6541 8fbb
00000210: 4658 81bd 29a0 cbbd d2a3 363e 7160 203e
00000220: 2b7c 11bd 540a d93b f0c7 8dbd c229 193d
00000230: 81b8 2b3e 67b1 1fbe 715d 133e 57d7 443e
00000240: a393 823d 54af 0f3e f428 22be 5420 3c3d
00000250: 8e1d 0ebe ec9b 303e 836f c03d c752 30be
00000260: bdb0 1bbe 7ea9 ebbd bde7 a43d a02f b93c
00000270: 57ff 843d 3434 6abd 265b 1a3e 4c94 3dbc
00000280: 1035 783e 2236 0ebb 31c5 aabd 070e 9abd
00000290: 6662 213e 3d7f 56bd 882e d5bd 33b1 093e
000002a0: ef54 833d edd1 b3bd 2584 463d 63ea dbbd
000002b0: 142c db3c b6c5 bb3d be74 0f3e b189 493d
000002c0: 33e9 fe3d 1114 e1bd 1b26 d3bd b787 143e
000002d0: efa9 823d 6bd5 2abe 0f9d 823d 0626 153c
000002e0: 1c90 813d 5a38 d13d 9293 87bd 8a74 0abe
000002f0: 489c b83d ccaa dc3d 6569 0bbe 2616 c3bd
00000300: bc23 623e ecc0 d7bc 5e80 96bd 944d 043e
00000310: eaa5 adbd f37e a03d 644b cfbc 6c66 80bd
00000320: c91d 153e e7b8 e9bd 1282 45bc ae90 09bd
00000330: 8a4d 8c3d 45dd b8bd 05f7 fabd f509 243e
00000340: 3225 22be d49d 0ebe e97c 09be 79aa 0cbe
00000350: 6aef 09bd 1426 133d e517 1d3c 614d 18be
00000360: e923 54bd ed8f 24be 8a48 413d a6cd 273e
00000370: 66c1 13be d5f8 193d 41c7 16be fb17 cc3d
00000380: 5bc2 4c3d 2ed4 633d bb16 86bd 6f4b 273e
00000390: 97da 15be e3e5 6fbe cc68 6dbc 379b 9ebb
000003a0: d854 373e b516 82bd cde8 90bd e6fa 833d
000003b0: d4eb aa3d db3f 23bd 7a98 b33d 0f5b 82bd
000003c0: 7dce 8f3d db39 ccbd d271 e8bc bcb2 16be
000003d0: 773b c8bd 5b37 023e 06e8 e33c 0465 963d
000003e0: ec22 253e 99d5 1cbc 70d5 e73b 4c68 083e
000003f0: da56 f03c a457 5c3d 53ec 473d 39e5 833d
-0.16176426 -0.15061083 0.094876684 0.033441078 0.022581 0.18431967 0.035680216 -0.11366365
-0.16532943 0.16334365 -0.07773696 0.12376311 -0.025558261 0.059084486 -0.19912429 0.030156402
0.12508252 -0.16724451 -0.098228075 -0.055002183 0.0030123512 -0.15863116 0.08337156 -0.17211828
0.02872107 -0.034224797 0.06482354 0.1443852 0.12590843 -0.13327576 0.16987818 -0.007957036
0.16328464 -0.10032392 0.18413146 0.16776998 -0.02773918 0.21403043 0.13943131 -0.1452942
0.107329115 0.08632788 0.14519204 0.021382941 0.055609822 0.0864776 -0.12531784 -0.07256058
0.10815628 0.079247616 -0.07665917 0.07519783 0.05057353 0.08657922 -0.08350042 -0.110948294
-0.09263561 0.04888654 -0.15548256 -0.08024107 -0.17354396 0.027090022 0.13072176 0.17242266
0.070063286 -0.011840976 0.121545695 -0.15090421 0.11225656 -0.0802072 -0.10022857 -0.044172112
-0.03982985 0.10797876 -0.16870014 0.11885382 0.16232365 -0.03823747 0.008231473 -0.06428143
0.102077775 0.1222314 0.17549211 0.059567012 -0.09411266 0.05378838 0.03502499 -0.08979098
-0.11899578 -0.10259336 -0.10904743 -0.043499257 -0.065237425 -0.07133908 -0.11674553 -0.086675435
0.21724474 0.046175424 -0.025884269 0.07335093 -0.121992804 0.087131545 0.17667094 0.014629532
-0.09148459 -0.1830362 -0.12001526 0.05969349 -0.15209638 -0.012730346 -0.079824455 0.10794388
-0.14254858 0.02834557 0.061918356 0.004538343 -0.038338643 0.03705081 0.033885095 0.14410245
-0.15112662 0.0891216 -0.0130979605 0.14808674 0.0015706519 0.0025648712 -0.17026202 0.091971695
0.1077916 0.022849107 -0.08382618 -0.0043718093 -0.06315665 -0.099426575 0.1783593 0.1566179
-0.035518806 0.0066235457 -0.06922901 0.03739334 0.16769601 -0.15595017 0.14391114 0.1922277
0.06375816 0.14031726 -0.15835935 0.045929268 -0.13878462 0.1724698 0.09396269 -0.17219077
-0.15204139 -0.115069374 0.08052013 0.022605717 0.06494015 -0.05717869 0.15073833 -0.011571001
0.24238992 -0.0021699746 -0.083383925 -0.07522207 0.15760192 -0.052367438 -0.10409266 0.13446502
0.06412684 -0.087802745 0.048465867 -0.10738065 0.026754417 0.0916857 0.14009377 0.04920358
0.12446823 -0.109901555 -0.103100024 0.14504896 0.063800685 -0.16682975 0.06377613 0.009103304
0.06326315 0.10215826 -0.06619944 -0.13521019 0.09014183 0.107747644 -0.13614424 -0.09525709
0.22083944 -0.02633711 -0.07348703 0.12920219 -0.08478911 0.07836714 -0.025304504 -0.062695354
0.14562143 -0.114122204 -0.012054937 -0.033585243 0.06850727 -0.09026579 -0.122541465 0.16019423
-0.15834501 -0.13927394 -0.13426556 -0.13736905 -0.03367559 0.035924986 0.009588216 -0.14873268
-0.05179206 -0.16070528 0.04718832 0.16387042 -0.14429244 0.03759082 -0.14724447 0.099655114
0.04999004 0.055622272 -0.06547304 0.1633737 -0.14634167 -0.23427539 -0.014490318 -0.0048402804
0.17903459 -0.06351987 -0.07075653 0.064443395 0.08345762 -0.03985582 0.08769317 -0.06365024
0.070218064 -0.099719726 -0.028374586 -0.14716619 -0.09776967 0.12716429 0.027820598 0.07343486
0.16126603 -0.00957241 0.0070750043 0.13321036 0.029338289 0.053794518 0.04880936 0.06440205

computational.4.bias f4 [23]
00000000: 0dc0 bfbd 9237 533e 6d86 c6bd afbf b93d
00000010: b7b3 8b3d 0403 473e ebeb 0a3e 9ddf fcbd
00000020: 4c3c 403b a056 0abe c286 fdbd 470d c83d
00000030: 7070 d93c 20fd cdbd 0879 62be d9ed 9abd
00000040: f713 1fbe d1be 85bd 3845 66be 64bd 163d
00000050: 5c6d 26bd a004 23bb c93f 553c
-0.09362803 0.20626667 -0.096936084 0.09069764 0.06821387 0.19434744 0.13566558 -0.12347338
0.0029332815 -0.13509607 -0.12379219 0.097681575 0.026542872 -0.100580454 -0.22116482 -0.07564897
-0.1553496 -0.06530536 -0.22487342 0.03680171 -0.040631637 -0.0024874583 0.013015696

memory.lookup_table.weight f4 [529, 23]
00000000: b328 fb3e 167f bebd 7516 bbbc 1bc1 0d3d
00000010: 02fd d9bd c27c bebd 592f c3bd e1b8 963d
00000020: d19f 7f3d 4016 923d a618 86be 3a4f 86be
00000030: e4fb a8bd 3c08 64bb f736 263c db24 51be
00000040: 7b5b 933d 3865 e7bd 050a 6c3d 58fe 6abe
00000050: df30 9cba dce9 c93d ebf5 bd3d 8fb7 75be
00000060: 49a8 f33e 82c0 abbc 7429 9b3d 22ee 97bd
00000070: 7dc6 a9bd 361b 0dba 3491 d4bd 6815 5fbd
00000080: 0dc2 563d 71c0 0abe 3052 7abd 664e 81bd
00000090: 0219 71bd 080a 32be 2ee9 ef3c b7cd 9bbc
000000a0: a72e 73be d51f dfbb add0 f33c 48a1 d4bd
000000b0: 5781 423e 1cb8 b63d 9055 23be 3daf 7cbc
000000c0: e38d 003f 2e33 f7bd 11f7 083e cde0 e6bd
000000d0: 2bbf 5a3c aa1b c13d e59a 0ebd 33d6 863d
000000e0: a665 5fbe 5d0d 3cbe 1701 1abe 7460 333e
000000f0: a6d1 333d 8acb 8c3d 07fc 71bd 6f95 00be
00000100: 93d2 e53d b02b 05be cc7e c3bb e064 d039
00000110: 304e 83be 1989 8fbd 1586 febd d756 2abd
00000120: 5a88 163f e6af e93c 3ef0 983b ea34 d3bc
00000130: b1a6 7d3d f51b c93d 5e37 fabd e81c 1bbd
00000140: 5fdb c33c 5a07 50bd ea60 ccbc 6122 38bd
00000150: a9da b4bd 2339 023c d622 98be c9cf 32bd
00000160: 926d 98bd b141 7abd fa89 b9bd 4469 55bc
00000170: 144f 0cbe 621e c7bc 42f0 293d ae31 52bd
00000180: c5e1 ef3e d783 1cbe bca1 343d 16d4 bf3d
00000190: 387b 3aba f937 a9bd 5eab 62be 4565 e4bc
000001a0: 2842 883c 1d2d 613c 6143 09be 96fe e9bd
000001b0: 3203 07bd c9bf e1bd ccfa a6bd 32e8 1bbe
000001c0: da4b 0c3d de92 81bc 90a0 2abc 54d2 ecbd
000001d0: c929 85bd 0718 473d 3eef 663b 2304 9f3d
000001e0: 3278 113f 192d 23be 27a4 8fbd 904e ddbd
000001f0: 2729 28be 8cd2 373d cab5 f93d 03ab 25be
00000200: afe1 103e d709 1e3c 912e b13d 5eca 20be
00000210: 2882 30be 5d90 37be ea61 8bbd 7645 1f3c
00000220: 7be8 17bd 6560 903d b114 363a 92cd 7abd
00000230: 653f 04be 53e8 34be c36c 1f3c d747 4abe
00000240: deff eb3e bb6a 99bd 69eb 4ebe 5182 b1bd
00000250: b2dc d83d 75c2 19be 3823 02bd 0cca c03d
00000260: a429 fd3c 4435 af3d 3c45 42be bc7b 65be
00000270: b537 2abe 3bbc 8bbb e367 ebbd 1a0a a8bd
00000280: 4697 0cbe abeb 19be 79a0 78bd 60b5 07be
00000290: 43c4 7bbe 6a56 11be f047 cc3d f3f6 2bbe
000002a0: aee1 d63e 9cac 09bd 1740 803d ff48 78bd
000002b0: aaaa 393e 31e8 ce3d 5c8e 6c3b 0e3c be3d
000002c0: 02f3 5ebd d5eb 18bd a895 efbd a640 e73d
000002d0: 5196 7fbd 6a90 55be 4f9b bbbd 9169 07be
000002e0: 1503 7bba 7b27 b0be 76c7 4d3b 7ee9 9ebe
000002f0: b041 4c3c 3304 c4bd eb53 bf3c a1e7 06be
00000300: aba2 cd3e 816c 303e d6dc 47be f57c 1fbe
00000310: 6896 7d3d 4ab3 24bd 89a6 72bd 2c5a 84bd
00000320: d8fd c6bd 1675 8e3c 9caa 26bc 3e65 c0bd
00000330: a598 cabd c4b4 933d 86fe b3bd df2c 773c
00000340: 98f6 25bd 12ae 6a3d 8715 9ebd 29ad f33d
00000350: b3d7 10be f7ea 0cbe be7a 3ebe e293 e4bd
00000360: 3e6e 2f3f 6ccc 26bc 9157 14be 05af ce3d
00000370: 71a3 1b3d 009a f83d adea 97bb 2ad5 7abe
00000380: 7f28 45bd 6bb0 6bbe 69c3 073d 1030 0a3e
00000390: f8b2 82bd f82d 403c 4745 0f3e 7555 0cbe
000003a0: fabb 20be 58fe f83d f432 abbd 2221 24be
000003b0: 5386 2dbb c4a7 28be 1af7 1e3d 19ed b9bc
000003c0: fcdc 1f3f 525d 3bbd a39f 4ebe 9946 7bbd
000003d0: 8d0d 0bbe 0e41 f4bd d74b d6bd d239 94be
000003e0: 18a5 4dbe 1f97 24be 1d94 263d 26e1 90bd
000003f0: 7b1d 653d 180d 5d3d 688c 28be d52e c7bd
0.4905449 -0.093015835 -0.022837857 0.034607988 -0.106439605 -0.093011394 -0.09530515 0.073594816
0.062408272 0.0713315 -0.2619068 -0.2623232 -0.08251169 -0.0034794947 0.010144941 -0.20424215
0.07195183 -0.11298603 0.057626743 -0.22948587 -0.001191642 0.09859058 0.09275421 -0.23995803
0.4758933 -0.020965818 0.07576266 -0.07418467 -0.08289812 -0.0005382778 -0.10379258 -0.054463774
0.052431155 -0.13549973 -0.061113536 -0.063137814 -0.05886174 -0.17386639 0.029285993 -0.01901899
-0.23748265 -0.0068092146 0.02976259 -0.103823245 0.18994652 0.08921835 -0.15950608 -0.015422639
0.502165 -0.120703086 0.13375498 -0.11273346 0.013351242 0.094291046 -0.034815688 0.06583824
-0.2181612 -0.18364473 -0.15039478 0.17517263 0.04390111 0.068747595 -0.059078243 -0.12557004
0.112218045 -0.13004947 -0.005966043 0.0003974801 -0.2564559 -0.07008571 -0.12427918 -0.041586723
0.58801806 0.028526258 0.004667311 -0.025782067 0.061926547 0.098197855 -0.12217592 -0.037869364
0.023908315 -0.05078826 -0.024948556 -0.04495466 -0.088307686 0.007948193 -0.29714078 -0.04365519
-0.07442774 -0.061097804 -0.0905952 -0.013025586 -0.13702041 -0.02430648 0.041488893 -0.05131691
0.46851936 -0.15284668 0.044099554 0.09366624 -0.0007113698 -0.08262629 -0.22135684 -0.02788032
0.016633108 0.013743666 -0.1340461 -0.114255115 -0.03296203 -0.11022908 -0.081533045 -0.15225294
0.034252025 -0.015817102 -0.010414258 -0.115635544 -0.065021105 0.0486069 0.0035237814 0.07764461
0.5682403 -0.15935172 -0.070137314 -0.10806 -0.16421948 0.044878528 0.12192877 -0.16178517
0.14148591 0.009645901 0.0865146 -0.15702197 -0.1723715 -0.17926164 -0.06805785 0.009721151
-0.037086945 0.07049636 0.0006945832 -0.061231203 -0.12914808 -0.1766675 0.009730521 -0.19753967
0.4609365 -0.0749106 -0.2020699 -0.08667434 0.10588969 -0.15015586 -0.03177187 0.094135374
0.030903645 0.085550815 -0.18971723 -0.22410482 -0.16622813 -0.004264382 -0.11494424 -0.08205052
-0.13729581 -0.15031306 -0.060699914 -0.13252783 -0.24586587 -0.1419312 0.099746585 -0.16793422
0.41969055 -0.03361188 0.06262224 -0.06061649 0.1813151 0.10102881 0.0036095595 0.09288798
-0.05443097 -0.037334282 -0.116984665 0.112916276 -0.062399212 -0.20855871 -0.09160482 -0.13223864
-0.00095753494 -0.3440512 0.0031399406 -0.31037515 0.012466833 -0.095711134 0.023355445 -0.13174297
0.40163168 0.17228891 -0.19517836 -0.15575011 0.061911017 -0.040210046 -0.05924085 -0.064625114
-0.097163856 0.017389815 -0.010172512 -0.093943104 -0.09892396 0.07212213 -0.08788781 0.015086382
-0.040518373 0.057294913 -0.0771895 0.11898262 -0.14144783 -0.13761507 -0.1860151 -0.11161019
0.6852759 -0.010180574 -0.14486529 0.10091976 0.037997667 0.12138748 -0.00463613 -0.24495378
-0.048134323 -0.23016517 0.033145342 0.13494897 -0.06381792 0.01172971 0.13991271 -0.13704474
-0.15696707 0.12157887 -0.08359328 -0.16028264 -0.0026477769 -0.16470248 0.038809873 -0.022696065
0.6244657 -0.045743294 -0.20178084 -0.061346624 -0.13579388 -0.11926471 -0.10463684 -0.28950363
-0.2008251 -0.16073273 0.040668596 -0.07074194 0.055936318 0.053967565 -0.1645981 -0.097257294

gate.0.weight f4 [32, 2]
00000000: 5b91 1cbf 69c0 d93e d87f 183f 72c9 febe
00000010: dc37 063e 127e cc3e d8a0 0e3f fbfd e7bd
00000020: 0957 de3e 06ae 243f 4a40 d0be 894d 4f3e
00000030: ed0f 213f f2de b0be 10cb 753e b194 a03e
00000040: dbc9 adbd 16f9 dabe b8f0 303e 11e3 dcbe
00000050: a54f 98be 0f8e 5d3e b239 cebe 7ccd 0b3f
00000060: 1b46 b5be ee28 1ebf 4962 24bf 6814 49be
00000070: f26d 3c3f 3028 03bf 2db7 243f 5338 0f3e
00000080: 4909 0a3f c40c 8f3e 6993 e1be 406f 2b3f
00000090: 8e65 2a3e 2a2d eabe c031 2c3e 2144 423f
000000a0: 0988 1bbf 5340 09bf c533 733e a99f f13d
000000b0: 36a9 243e 9077 26bf edd9 25bf 6cc1 9bbe
000000c0: 3064 c5be 395e 133f 4a15 c7be c20f d9be
000000d0: 6b0c 2cbe 282c d43e a96f c33d ee63 5f3e
000000e0: e750 08bf 36a0 08bf 29a8 a23d bf43 243f
000000f0: c6f8 e1be 4002 f1be eb78 cabb e9de 36be
-0.61159295 0.4252961 0.59570074 -0.49763066 0.13107246 0.39939934 0.5571418 -0.1132774
0.43425778 0.6432804 -0.4067405 0.20244421 0.62914926 -0.34545094 0.24003243 0.31363443
-0.084857665 -0.42768162 0.17279327 -0.43141988 -0.29748264 0.21636222 -0.40278393 0.5461042
-0.3540505 -0.61781204 -0.6421247 -0.1963669 0.73605263 -0.51233196 0.64342004 0.1398633
0.5392042 0.27939427 -0.44057778 0.6696663 0.16640303 -0.45737582 0.16815853 0.75885206
-0.6075445 -0.53613776 0.23750217 0.11798031 0.16080174 -0.6502619 -0.64785653 -0.30421007
-0.38553 0.5756565 -0.3888343 -0.42394835 -0.16801612 0.4143994 0.09542782 0.21815464
-0.5324845 -0.5336946 0.0794223 0.6416587 -0.44135112 -0.4707203 -0.0061789653 -0.17858471

gate.0.bias f4 [32]
00000000: ec9f f8be fbd7 c13e d869 313e c87e 68be
00000010: 5ce0 d13d 6be3 443f 0743 0d3e 00ad 14bf
00000020: c916 a2be b172 acbc ae40 81be 804b c7be
00000030: d69e d9be 770a 8bbe 9357 e53e 2c85 913e
00000040: 2859 dcbe 8fc5 2d3f 11ad adbe 3efc 7bbe
00000050: 6c00 b83c bae7 2ebe f933 acbb 0412 1c3f
00000060: ab1a b13e 3e13 edbd 05c2 b83d 602c 7c3e
00000070: 8142 8d3e 093f 733d d6b2 dfbe 7c11 ebbb
-0.4855951 0.37860093 0.17325532 -0.22704613 0.10247871 0.7690951 0.137951 -0.5807648
-0.3165801 -0.021050783 -0.2524466 -0.3892479 -0.42503995 -0.27156422 0.44793376 0.28421915
-0.4303677 0.67879575 -0.33921102 -0.24607942 0.022461139 -0.17080584 -0.005255219 0.6096499
0.3459066 -0.11575936 0.09021381 0.24626303 0.275898 0.059386287 -0.43691128 -0.007173715

gate.2.weight f4 [1, 32]
00000000: 59e5 4c3e e076 5bbc b75a fcbc 2cc4 693e
00000010: 53f5 68bd dd21 653e f52c 683e 8bb7 4c3e
00000020: 37b5 083d ce69 4a3e 0230 b83c fd13 463e
00000030: 2d3c 20be a370 c5bd 2864 fd3d 544a 343e
00000040: b7a0 fc3d 3ac8 0e3e 33f2 15be 41de 5c3e
00000050: a076 80bd 6133 583e 4d49 dcbd 6655 9b39
00000060: 1ce8 013e b2e5 e5bd 6da8 5e3e 90f8 93bd
00000070: d091 d3bd b3e5 c8bd e373 1d3e 520b 6b3d
0.20009364 -0.013395041 -0.030804975 0.2282874 -0.056874584 0.22376199 0.226734 0.19991891
0.033375945 0.19766924 0.02248383 0.19343562 -0.15647955 -0.096406244 0.12372619 0.17606479
0.123353414 0.13943568 -0.14643173 0.21569158 -0.06272626 0.2111335 -0.107561685 0.0002962753
0.12686199 -0.112254515 0.21743937 -0.07225144 -0.10330546 -0.09809437 0.15376239 0.057383843
