models/successful/transformer_p17.pt (torch, 419689 bytes, 30 tensors)

embed.weight f4 [17, 64]
00000000: e33e f13f 0c2e b83f 9921 623f 6c55 06c0
00000010: da77 273f 0fb0 9fbf ae09 e4bd 3149 c3bf
00000020: e71c 42bf 6bfc c93f 349a c1be 5dc2 acbf
00000030: 0654 2fbf e356 fdbe f5cc 3cbf 1770 4a3f
00000040: c3a9 cd3f a686 3bbe 383f e2be e5a6 dc3e
00000050: 3a48 34bf 4386 843f cca1 3e3f cbf7 d33f
00000060: bf63 9e3f 0308 a43f fe6c 1c3f 90e0 a33f
00000070: 79c8 3cbe 7d6d 3a3d 5402 57be a412 513f
00000080: 10e4 a9bf 44e0 5cbf fe47 7ebe b913 d33f
00000090: aac7 a43e c28d dfbe c6b6 953e 3f6e 3fbf
000000a0: b56c bebf b532 803f 2bee 63bf f457 1abf
000000b0: a2f2 a3bf d67a 0340 e6bd 95bf 2396 01bf
000000c0: 128e 59bf ce61 22bf 9e52 a23d 016c ff3e
000000d0: 66cb 03bf 165d 923f fa89 46bf 2c21 36bf
000000e0: e4af b0bf 75a8 92bc b089 f2bd 0371 213f
000000f0: 93fe 92bd 8992 e93f 07e0 96bf 7080 b13f
00000100: a5df af3f f260 5f3f 0df2 0b40 f11e fe3e
00000110: 4c9d af3e 47c2 69be c131 81bf e18b 9c3f
00000120: c4ac 4cbe 9b83 073f 0fe2 683d 2a24 dd3e
00000130: 63d5 0b3f 24ab 1cbf 2e2a 0bc0 6dd3 40bf
00000140: 3dd5 033d 5b04 9fbe 5ca6 abbf d17d 0bbf
00000150: f11e 013f 894a f83e c2a6 8e3f 34ed 4b3c
00000160: 9da6 563f e43c e8be add3 80bf 84e2 283f
00000170: 851e d9bf d421 4fbf 1339 a53f 25d8 fb3e
00000180: 6503 1fc0 24f9 f33e 488f 443f 9a97 413d
00000190: 5442 203f dc11 0e3f f742 863f af86 c9be
000001a0: d9c1 2fbe 3efb 323f 41f6 cc3e 1522 293e
000001b0: ed3b 863e 1fdc a13f 4ff9 dd3c 146f 90be
000001c0: dfc8 bdbf 9e42 c8bd 557a 13bf a254 eb3e
000001d0: 90b2 413f 9163 bf3d 641c b6be 81e8 f73e
000001e0: aad9 f33c 594d 733e f6c3 263e e3ca 383f
000001f0: 1e61 873f ed89 b33e 4ed3 363f 18ce c43e
00000200: 6279 f23f 9ae9 753f 02b3 b0bf f0eb 93bf
00000210: f057 36be a36f cf3f 9bee 1b3f 5490 183f
00000220: 0248 8b3f 56e0 b83b 33fc dbbf a990 6e3f
00000230: 5da3 aebe cb37 823f e265 26bf 897c 1e3f
00000240: 09c6 7dbf 83ce 6e3f c6d4 c63f 7ac5 b73f
00000250: e10f 963e eb8b 2bbe ae60 48bf 9877 d83d
00000260: cb7a b23e 0339 713f ff5a dabe a65d cd3f
00000270: 7064 1fc0 dabd bfbe a12d 96bf c250 463f
00000280: 35e8 eebf f728 823e 1d80 02bc 724f bcbe
00000290: 2267 873e 8a04 37bf c6b9 253e d419 91bf
000002a0: e546 c9bf 4cb3 a93f 6e72 a13f 1ef2 e13d
000002b0: ad5e bbbf 82b1 3e3f 4387 443f e307 0040
000002c0: f8da 9b3d 4a80 d43d b49e 4fbf 6f33 38be
000002d0: 2685 5bbf 6ac3 c5bf b2ac 8ebf 6d5b 04bf
000002e0: dd39 10bf 7acd c1bf 3bb7 efbf 0676 ec3d
000002f0: e320 843f 6da0 fbbe c797 343f 180d 293f
00000300: 42a3 e13f 71c2 6cbf 1aa3 763f 57d1 a9be
00000310: 5af7 93bf e267 ac3e c717 013f b83d a83f
00000320: 948b 0a3f 9967 0740 98e6 ebbe b208 62bf
00000330: 441a 133e 920c 8a3f f0e6 a83f 628d fa3e
00000340: c8ee 48bf 18b4 83bf ee4f f7be 5b74 0cbf
00000350: 1619 413e 63c0 da3e 4c08 3cbe 5d51 10c0
00000360: 6aa7 debe ca46 8c3f e1d4 e0bf cc6c bb3f
00000370: d09a aa3e 7092 f2be b0cd 7c3f 4f8e cf3f
00000380: 7c3f 973a fd78 d23f 08b9 243e 46f6 89bf
00000390: cc6e 0abf 5792 e73d a2ef b63e 292f f53f
000003a0: 721c 70bd 7499 65bf 7676 01c0 f168 89bf
000003b0: 39d8 1a3d 099d 4a3d 6f8a 5b3e 39c9 a93e
000003c0: 9609 59bf 36c1 853e 3c25 0abf 28b7 de3e
000003d0: cd61 6abf 9470 e6bc ca5b b1be 3eab be3f
000003e0: 9011 a43f 6164 35bf 1173 5a3f b126 ec3e
000003f0: 3487 103f 2bab 0d3f ad6b ed3e 6761 843e
1.8847317 1.4389052 0.88332516 -2.0989637 0.65417254 -1.2475604 -0.11134659 -1.5256711
-0.7582535 1.5780157 -0.3781296 -1.3496815 -0.68487585 -0.49480352 -0.7375024 0.79077286
1.6067432 -0.18313083 -0.44188857 0.4309608 -0.7042271 1.0353473 0.7446563 1.6559995
1.237419 1.2814945 0.6110381 1.2802906 -0.18435849 0.045514572 -0.20996982 0.8166907
-1.3272724 -0.862797 -0.2483215 1.6490394 0.32183582 -0.4366284 0.29241008 -0.747776
-1.4876925 1.0015475 -0.8903529 -0.60290456 -1.2808421 2.0543723 -1.1698577 -0.50619715
-0.8498241 -0.6343049 0.07925914 0.49887088 -0.51482236 1.1434658 -0.77554286 -0.71144366
-1.3803678 -0.017902592 -0.11842668 0.6306307 -0.071774624 1.8247844 -1.1787118 1.3867321
1.3740126 0.872573 2.1866486 0.4963298 0.34299695 -0.22828017 -1.0093309 1.2230188
-0.1998778 0.5293519 0.05685621 0.43191653 0.5462248 -0.6119864 -2.1744494 -0.7532261
0.03218578 -0.3105801 -1.3410144 -0.54488856 0.5043784 0.48494366 1.114464 0.01244669
0.8384798 -0.45358956 -1.0064598 0.65970635 -1.6962439 -0.8091099 1.2908043 0.49188343
-2.4845822 0.47651017 0.7678113 0.04726372 0.6260121 0.55496 1.0489186 -0.39360568
-0.17163791 0.69914615 0.40031627 0.16516908 0.26217595 1.2645301 0.027096419 -0.28209746
-1.4826926 -0.09778331 -0.5760854 0.45963007 0.7566309 0.09345163 -0.35568535 0.48419574
0.029766876 0.23759975 0.1628569 0.7218458 1.0576513 0.35066167 0.71416175 0.38438487
1.8943293 0.9605957 -1.3804629 -1.1556377 -0.17806983 1.6205944 0.6091096 0.5959523
1.088135 0.0056419773 -1.718634 0.93189484 -0.3410901 1.0173277 -0.6499921 0.61908776
-0.991303 0.9328386 1.5533683 1.435714 0.2930899 -0.16752593 -0.7827252 0.10569686
0.3485931 0.9422762 -0.4264755 1.6044204 -2.4905052 -0.37449533 -1.1732675 0.77466977
-1.8664614 0.2542188 -0.007965115 -0.36779362 0.26445872 -0.714913 0.16184148 -1.1336007
-1.572476 1.3257842 1.2613046 0.11032508 -1.4638268 0.74489605 0.76768893 2.0004814
0.07610124 0.10376032 -0.81101537 -0.1798837 -0.85750043 -1.5450261 -1.1146452 -0.51702005
-0.5633829 -1.5140831 -1.8727793 0.11545949 1.0322536 -0.49145833 0.70544094 0.66035604
1.7627947 -0.92484194 0.96342623 -0.33167526 -1.1559861 0.33673006 0.50426906 1.3143835
0.5411923 2.115698 -0.46074367 -0.8829452 0.14365488 1.0785086 1.3195477 0.48935992
-0.7848935 -1.0289335 -0.4830317 -0.54865044 0.18857226 0.42724904 -0.1836254 -2.254966
-0.43487102 1.0959103 -1.7564965 1.4642577 0.33321238 -0.47377348 0.98751354 1.6215304
0.0011539306 1.6443173 0.16086209 -1.0778282 -0.5407531 0.11307209 0.357297 1.9155017
-0.058620878 -0.89687276 -2.0228553 -1.073515 0.037803862 0.049466167 0.21439527 0.33161333
-0.8478025 0.2612397 -0.53963065 0.43499112 -0.9155548 -0.028129853 -0.34640342 1.4896009
1.281786 -0.7085629 0.8533183 0.4612327 0.56456304 0.55339307 0.46371213 0.25855562

pos_embed.weight f4 [2, 64]
00000000: a1b9 4c3e 3040 923d 5386 a4be 7c3c 503f
00000010: b41d 743e d7fe cf3e 1956 973f 07bb 953f
00000020: 4bce 283f 6ad5 b8bd 1383 b6bf 5074 bdbf
00000030: 092a b33e d51e b6bf 0051 eb3f 9be7 51bd
00000040: ae26 8abe f0f6 ab3f 36b0 60bf 22bc 3fbf
00000050: 0398 cebe 3279 873f 9dac 963e dc53 aebd
00000060: 5d8a 353f 7a33 8abf 3e6f 753f 7414 8fbf
00000070: b6ac 6b3f ab05 8abf fc1a 3cbf 451f 36be
00000080: 4408 423b 2cc5 37be 96e3 943f c141 273f
00000090: 3be0 eabf cec5 343e fdc1 c53f b72d 81bf
000000a0: cb27 33bf 6919 b4be 6d2a 213e 0702 91bd
000000b0: 5395 8c3f fafa 933d 93e8 1bbd 022c 5840
000000c0: 49f9 86bf 0ef5 cabe 960b 913c e459 0a3f
000000d0: b0f1 163e cb98 52bf 3d11 953f c62f aa3e
000000e0: 1a9e e0bd 8314 1a40 4540 0c3f 2d33 343e
000000f0: c3c8 a3bf c9d2 18bf 6fc2 233f 3fe1 82be
00000100: cc52 acbf e31d 8abd 11ae f93e d976 903f
00000110: 4352 0740 41ee db3f 3ad5 933e bebf 17c0
00000120: 3b6b a2be 7038 a2bf 7960 d3be 63b9 12bf
00000130: b082 de3f c38f 39bf 9880 e73e a43c 0cbf
00000140: f3a9 a53d c67b 84be 0e2a 503f a0d4 83bf
00000150: cc1f 78bf 488e 70bf 1bb7 3540 99dd b33f
00000160: 4512 02bf e5b1 6dbf 251e 2fbf 6da6 d53d
00000170: 1671 64be 7c63 3bbf 3a99 973f bdd8 773f
00000180: bca2 7a3f 2601 1b3f a6b6 5d3f 8506 4c3f
00000190: 477a 2d3e e3c7 19bf 61b6 52bf 38b9 bfbf
000001a0: ae0d 3ebf 9d19 053f c262 313f 6796 043f
000001b0: 414c a03f 93b9 d83f 31cb 5e3e 9948 bd3f
000001c0: cf98 053f 8ece ab3e ad12 4d3f d8eb fb3f
000001d0: 8215 b73e 02de e73e 4735 273c c1bb 853f
000001e0: 135b f4be 9b5b 4abf 77d6 53be e637 0d40
000001f0: 057e 45bf 0a82 8dbe e5f4 c13f f17e 84be
0.19992687 0.07141149 -0.3213373 0.8134229 0.23839456 0.40624115 1.182315 1.1697701
0.6593978 -0.090250805 -1.4258751 -1.4801121 0.34993008 -1.4228159 1.8384094 -0.051246267
-0.26982635 1.3434734 -0.87768877 -0.7489644 -0.4035035 1.0583861 0.29428568 -0.08512089
0.7091425 -1.0796959 0.9587287 -1.1178117 0.9206041 -1.078298 -0.73478675 -0.17785366
0.0029606977 -0.17946309 1.1631954 0.6533471 -1.834968 0.17653582 1.5449826 -1.0092076
-0.69982594 -0.35175636 0.1573884 -0.07080465 1.098307 0.07225604 -0.038063597 3.377686
-1.0544826 -0.39640087 0.01770572 0.5404341 0.14740634 -0.82264394 1.1645886 0.33239573
-0.109676555 2.407502 0.5478557 0.17597647 -1.2795643 -0.5969663 0.6396856 -0.25562474
-1.3462768 -0.06743982 0.48765615 1.128627 2.1143959 1.7182084 0.28873616 -2.371078
-0.31722435 -1.2673473 -0.4128454 -0.5731413 1.7383633 -0.7248499 0.45215297 -0.5478003
0.08089056 -0.25875682 0.8131417 -1.0299263 -0.9692352 -0.93967104 2.8393009 1.4052001
-0.5080913 -0.9284957 -0.6840537 0.10432134 -0.22308764 -0.73198676 1.1843636 0.9681509
0.9790456 0.6054863 0.86606824 0.7969745 0.16941176 -0.6007063 -0.8230954 -1.4978399
-0.74239624 0.5199221 0.6929132 0.51791996 1.2523271 1.6931633 0.21757199 1.478778
0.5218629 0.33556026 0.8010662 1.9681349 0.35758597 0.45286566 0.010205573 1.0447923
-0.47725734 -0.7904603 -0.2068728 2.2065368 -0.77145416 -0.27638274 1.5152861 -0.258781

blocks.0.attn.W_Q.weight f4 [64, 64]
00000000: d4b6 d93d d847 773d 6989 123e 0878 14bd
00000010: 44cd 10be 7695 b2bb 2813 863d f347 9abd
00000020: 2788 053e de74 3abd 358f b83d 2977 943d
00000030: 48c0 85bc bd72 42bd 0490 933d 3015 3e3d
00000040: f9b2 cc3d e7df 8d3c 2ea9 1e3e 155e 05bd
00000050: 3e46 9dbd 2bef d53d 1b7d 24bd dd2a 3e3d
00000060: 5183 04be 974a 8bbb 8530 0c3d a192 dbbd
00000070: 3db6 a23d a7e5 163c eb61 e7bd e05e 50bd
00000080: 71e0 f4bd 2a4a 813d b395 1ebd f50b e0bd
00000090: 4274 a43b 31c3 85bd adf9 ecbc 76cc 103e
000000a0: a924 b1bd 9915 0b3e 937b fa3c e649 e7bd
000000b0: d2fe b6bc 0782 043e 3611 b9bd f38d d1bd
000000c0: cca4 483e 5b58 cb3d 026a dcbd 75cd ee3c
000000d0: 4f6c d6bd 9a7a 46be 3629 8b3d edfd 743d
000000e0: ad91 eabd f9fc 843d ff2e cabd dc6c e63d
000000f0: 9ed6 363e bb83 883d f4be 1ebd 0503 ef3d
00000100: cdcb 26be 804d b5bd dbae 87bd c91a 84bc
00000110: 6a06 c5bc cb79 023e b6f2 183d aba7 45be
00000120: 84df b03d e76f 2c3d e399 983d ee69 c3bb
00000130: 03cb 5a3d 79eb 70bd f405 103e dd04 843d
00000140: 28b8 00be eed0 0cbe b048 883d faa4 00bc
00000150: 333d 1ebe d81c 0bbd 4219 283d 90fa 27bd
00000160: 220c 02be fd60 e83d a579 7a3d 7ad0 fbbd
00000170: e18d ad3d a76d a73c 1a0c 513d d375 903d
00000180: 8c10 d43d 7c76 9dbc 09c8 443e 88fa 35bc
00000190: 0de1 96bd 6987 3e3d 8531 a3bd c6d0 c03b
000001a0: 79d8 a8bd 7d84 15bd c780 923d c732 4abd
000001b0: 1699 23bd 8463 32be 3432 c0bc 9110 b33d
000001c0: 4c3a b0bd 5cc4 febc 1a40 2ebc 427f 9b3d
000001d0: b258 983d b2f7 fa3d 2cb7 8bbd 244c 163e
000001e0: 8c06 e83d a82b 673d 7d6a 443e 6dbf d03c
000001f0: 9ba0 b6bd c732 bfbd 7c3b 0c3d 63e7 eb3b
00000200: dbc6 9f3c b8d9 24be 4f7b e73c cc49 52bd
00000210: ef95 4ebe ba65 2cbd bdf9 9c3d 625d 6e3c
00000220: af24 e43c d66f 8e3d 7e5f 0d3e ab76 d63b
00000230: ae02 f3bd 92c5 143e 6dc2 213d 06ad 9abd
00000240: b403 46bd f792 7a3d c555 08be a9b3 3c3d
00000250: c982 c03d abb8 cebd 0a80 f5bd d610 58bd
00000260: 9665 253e bbd9 2e3e 3cd3 d83b c3f7 143e
00000270: 5995 81bd b9a1 78bd b182 673d 60f9 26bd
00000280: 1994 943d f226 b53d 1140 7e3b 1787 a73a
00000290: 9b90 153e 2b35 00be 8748 9f3d 3970 ffbc
000002a0: 8c09 293e 8f12 473d 21e8 5dbe 706b 43bd
000002b0: 4333 bebd 5975 b4bd c850 253d 53ad 25bd
000002c0: af10 4b3d a281 6dbd a271 b73d 65b6 6cbc
000002d0: b25d df3c 227b d23d 4e4d 28be 0e5b 2bbe
000002e0: 0b14 17be 7b85 36be f217 fdbd 6626 33bc
000002f0: eb37 49bd ee80 893d e70f a4bd f934 a53c
00000300: b7c3 2dbd b401 1dbd 9723 963c 3cdc 58bd
00000310: 6798 41bd 223d 06be bc87 0cbd 7bb2 6bbc
00000320: 1952 efbd 1919 a23d 3248 6e3d 3674 793d
00000330: f16f 0abc 24ea 1d3e 2f04 ccba 69fc 87bd
00000340: 5fd4 0a3e 931a f3bd baef c43c c0fd 573c
00000350: f8c8 45bd 4951 22bd 2257 4d3d da06 c53d
00000360: 1379 f53c fc08 273e 57fa 8dbd f0df 6c3d
00000370: a1b9 173e bee7 143e 9422 98bd 83cb fc3c
00000380: 789e 73bd 62d8 a23c 8335 e7bd 0c8c 38be
00000390: 199c 8dbd 4ed3 0abe 0b18 483b 0e47 0f3e
000003a0: 6c3d eabc f3a5 c8bb f85b 4fbd 40bc 12be
000003b0: 535d 15bc 821c eb3d 5801 913d 3ed4 0dbe
000003c0: 4ae9 a73d 866c 053d b8a1 363e 907b 09be
000003d0: 91a9 3dbe 38ba 013e 8efd e7bc d644 e9bd
000003e0: fa86 09be a0b5 f4bd 6e8c 323d 803f 38bd
000003f0: 2eba 163e aeea 383e 7545 7bbd 77c3 7d3d
0.10630575 0.06037125 0.1431023 -0.036247283 -0.14140803 -0.005449946 0.065466225 -0.075332545
0.13040219 -0.04552161 0.090116896 0.072492905 -0.016327038 -0.047472704 0.07205203 0.046406925
0.09995074 0.017318679 0.15494224 -0.032560427 -0.07679413 0.10446008 -0.040158372 0.046427596
-0.12940718 -0.004250835 0.03422596 -0.107213266 0.079449154 0.009210027 -0.11297973 -0.05087173
-0.11956871 0.06312974 -0.038716983 -0.109397806 0.005018742 -0.065313704 -0.028927648 0.14140496
-0.086495705 0.13582458 0.030576503 -0.11293392 -0.022338305 0.12940226 -0.09036486 -0.10232153
0.19594115 0.09928962 -0.10762407 0.029150704 -0.10469877 -0.19382706 0.0679497 0.059812475
-0.11453567 0.06493563 -0.09872245 0.11251232 0.17855307 0.066657506 -0.038756326 0.11670498
-0.16288681 -0.088526726 -0.06625148 -0.016126053 -0.02405091 0.12741773 0.037340842 -0.19302242
0.08636382 0.042098906 0.074512266 -0.0059635555 0.053416263 -0.058818314 0.14064771 0.0644624
-0.1257025 -0.13751575 0.06654489 -0.0078518335 -0.15453033 -0.033963054 0.041039713 -0.04101044
-0.12699941 0.11346624 0.061151166 -0.12295623 0.08474327 0.020438028 0.05103693 0.07053723
0.103547186 -0.019221537 0.19216932 -0.011107095 -0.07367144 0.046515856 -0.079684295 0.0058842627
-0.08244414 -0.036503304 0.071534686 -0.04936483 -0.039940916 -0.17420775 -0.023461439 0.08743394
-0.08604869 -0.03109949 -0.0106354 0.07592632 0.07438792 0.122542754 -0.06822047 0.14677483
0.11329374 0.05643812 0.19181247 0.025481904 -0.08917352 -0.09335857 0.034236416 0.0071992143
0.019504001 -0.16098678 0.02825704 -0.05133991 -0.20174383 -0.0420892 0.07664821 0.014548631
0.027849523 0.06954925 0.13805959 0.006544908 -0.118657455 0.14528492 0.03949206 -0.07552533
-0.048343375 0.061175313 -0.13313968 0.046069775 0.09399945 -0.10093816 -0.11987312 -0.05275043
0.16152033 0.17075245 0.006616978 0.14547639 -0.06327314 -0.060701106 0.05652112 -0.040765166
0.0725481 0.08845319 0.003879551 0.0012781349 0.14605944 -0.12520282 0.07777505 -0.031181442
0.16507548 0.048601683 -0.21670581 -0.047709882 -0.09287121 -0.08811445 0.040360242 -0.040448498
0.049576458 -0.057984956 0.089572206 -0.014447783 0.027266357 0.10277392 -0.1643574 -0.16733953
-0.1475374 -0.17824356 -0.12358083 -0.010934448 -0.049125593 0.067140445 -0.08010846 0.02016686
-0.042422976 -0.038331702 0.018327517 -0.052944407 -0.047264483 -0.13109258 -0.034309134 -0.014385815
-0.11685581 0.07914943 0.05817432 0.060901843 -0.0084495405 0.15421349 -0.0015565212 -0.0663994
0.13557576 -0.11870303 0.024040092 0.013183057 -0.04828736 -0.0396283 0.050131924 0.096204475
0.02996496 0.16312021 -0.06932514 0.05783075 0.14816906 0.14541528 -0.0742847 0.03085876
-0.0594773 0.01987857 -0.112895034 -0.18022174 -0.06914539 -0.13557169 0.003053191 0.13991949
-0.028593741 -0.0061232983 -0.050624818 -0.14329624 -0.0091164885 0.11480047 0.070803344 -0.13850495
0.08198793 0.0325742 0.17835128 -0.13426042 -0.18521716 0.12668693 -0.028319146 -0.113900825
-0.13430396 -0.11948705 0.043590955 -0.044982433 0.1471946 0.18058273 -0.061345536 0.061953988

blocks.0.attn.W_K.weight f4 [64, 64]
00000000: def3 91bb e5e8 64bd 4b0c a33d 9b58 b73a
00000010: e85b 4abd 201d 74bd bb0c c2bd b940 2d3d
00000020: e4f3 1b3e 181d abbc d1e7 cebd 1dd4 033e
00000030: 62d0 0abe 5052 2b3e 6f08 383d 67eb 30be
00000040: 795d a8bc ec18 afbd cb26 ca3c 8660 ffbd
00000050: 766d 2a3e 75d2 eebd 8ae0 1d3c 8393 eebd
00000060: d484 2cbe 958f ee3d 4e7d 413c 6e91 cebd
00000070: 2c60 2cbe acd0 86bd 15bc e1bd d466 29bd
00000080: 10c8 863b 95e1 a93d 94f1 4b3e 2938 0dbe
00000090: 58f0 a43d 26f6 363e fe75 2b3d bd0b 43bd
000000a0: 5954 c7bd 135c 04bd fc22 e23d d2b6 c33c
000000b0: 511f 143c 469e e7bd 9d62 16be 07cf c6bd
000000c0: 2ac5 7b3b 544c 923b 90ae 7e3d 519f 37bd
000000d0: b5b9 943d f622 7e3d f00b acbd 4ef9 053c
000000e0: c58b 613d 4c85 9f3d 3812 393e c9d8 2d3c
000000f0: 1b2f 843d 5957 4f3d 75e1 f53d 3ead dabc
00000100: dd49 68bd 4802 fe3c 201c 2cbd 4a5a 8bbc
00000110: 5442 483d 8ab5 3c3e e2b0 83bc a342 42bd
00000120: 7a32 6bbd 2ff3 8abd 1067 0c3e 6ba7 c1bc
00000130: d41b 8e3d d57b e03c a71a fe3d dc86 003e
00000140: 23c5 88bd 9629 56bc 0c6f 3d3d 6a29 d93c
00000150: c425 94bd 02f6 8abc 64a2 203e 0760 b7bd
00000160: 2e58 a73d 0092 e53d e333 2f3e eabc 843d
00000170: 94c7 c4bd cfb7 f1bd bba4 b6bd 1878 a83d
00000180: 4a06 1abe ef68 233e aea3 763d 6adb 30bb
00000190: f942 ab3d dbc7 2dbd 62cf ec3d 09d0 3fbd
000001a0: 6ffd 733d 1457 8bbd 2997 d7bd c45f 823d
000001b0: 33f5 483e 50fa b5bd 730e 753d 4285 17be
000001c0: 0c07 18be 4645 b3bd 4c5f 28be 01e1 36be
000001d0: 7348 17bc 4790 493d 087f 1c3c 9fb1 3b3d
000001e0: 2c71 f4bc a082 2dbd 0dc2 dbbc c479 2bbe
000001f0: 5570 013e 6af2 423d 8ab6 93bd 5695 3bbe
00000200: 0a6f d1bd e0c6 68bd a767 0f3d 15f3 dcbd
00000210: 7a6c d73d 0209 71bd 6634 f1bd 3e2f 01be
00000220: b4ae e53d d1fa 533e 5cbd 8a3d 6f53 18be
00000230: 81e0 873d d9ee 363c c3a4 99bd 2c32 723d
00000240: 6f67 0dbd ba0d 71bd 7183 5b3d edb7 debd
00000250: 2574 d8bd 83e0 6abd beff d6bc 5723 bd3d
00000260: b32a 373d 86f7 1dbe 636f e1bd c263 8b3b
00000270: 6917 2a3c 1bd2 74bd 3761 5fbd a749 203e
00000280: fa9a 313b c55b a93d 6603 80bd e3af 11be
00000290: bf78 1abd 3236 3fbb a1cc 483c e563 4c3e
000002a0: 8b03 c13d ed4a d3bb a55f 633d 3d25 a63b
000002b0: a71e 43be c31c 793d 9d01 2ebe 1574 863c
000002c0: fcf7 d3bc 8ce2 173e 094c 26bd d63e 363d
000002d0: 2a79 2abe 545f e13d fb78 333d 17f1 bdbd
000002e0: 927e e83c ec7c 1b3e 8c29 f53d 1aee 81bd
000002f0: ece3 83bd 24e3 213e d2a2 5fbd ba2a cc3c
00000300: af39 963d 7d73 a4bd f0a8 6d3c 1f0f 9c3d
00000310: 74c5 263e a214 d0bd feed 87bd ee64 453d
00000320: d204 083c 7267 3f3e e875 b93d 6e3d 2cbd
00000330: 9cc0 eebd e4da 94bc 680e 753d 4e23 7ebc
00000340: 6fe9 e63d 5c14 04be 30f9 04be 7e1d b7bd
00000350: f388 503b 4128 e93d 6e4a 88ba 0fe0 aabd
00000360: 8caa b2bd e173 a7bd 9db0 bfbd 804f b6bd
00000370: 9840 123d f12d 923d 4446 303e 6ca6 9b3d
00000380: 7a35 27be 0e84 303e aea5 083e a1e0 c8bd
00000390: b3e9 3abc f1ce 093e 3199 4f3c 96ac f23d
000003a0: 1e52 d9b9 f470 9e3c a4d0 d03c c910 893d
000003b0: a8e6 f83c 050b 48bd bf3a 07bc edf5 b037
000003c0: 0360 c8bd 7af3 863d f936 f6bc 700b 4abd
000003d0: 1dd9 13be be46 00be 47ce a03d c257 a43d
000003e0: 58b8 0f3e 6098 a73d c0cc 213e f3c3 2fbd
000003f0: 7d2e 29bc 0784 c43d e9d0 4dbe 9a8b 253e
-0.00445412 -0.055886168 0.07961329 0.0013988198 -0.049404055 -0.05959809 -0.094750844 0.042298052
0.15229756 -0.020887896 -0.10102809 0.12873884 -0.13556054 0.16730618 0.044929918 -0.17277299
-0.020552384 -0.08549675 0.024676701 -0.12469582 0.16643319 -0.11661235 0.009636054 -0.116492294
-0.16847545 0.1164848 0.01180966 -0.10086332 -0.16833562 -0.0658277 -0.11022202 -0.04135783
0.004113205 0.082949795 0.19916373 -0.13790955 0.080536544 0.17867336 0.041860573 -0.047618616
-0.09732885 -0.03231437 0.11041829 0.023890886 0.00904067 -0.11309485 -0.14686055 -0.09707456
0.003841708 0.0044646654 0.062178195 -0.04482967 0.07261983 0.06204506 -0.084007144 0.008177115
0.055064935 0.07789096 0.18073356 0.010610768 0.06454297 0.05062041 0.12005893 -0.026693936
-0.056711067 0.031006947 -0.04201901 -0.017010827 0.04889138 0.18428627 -0.016075555 -0.04742683
-0.057421185 -0.06784665 0.1371119 -0.023639401 0.069389015 0.027402798 0.12407427 0.12551445
-0.06678226 -0.013071438 0.04624848 0.026509006 -0.07233766 -0.016963009 0.15686947 -0.08953863
0.08171116 0.11209488 0.17109637 0.06481345 -0.09608379 -0.11802637 -0.089181386 0.08226031
-0.15041462 0.15957998 0.06021469 -0.002698625 0.083623834 -0.042426925 0.11562993 -0.046829257
0.059567865 -0.06803718 -0.105268784 0.06365922 0.19624786 -0.08885634 0.059828233 -0.14796928
-0.14846438 -0.08753447 -0.16442603 -0.1785927 -0.009233582 0.04920986 0.009551771 0.04582369
-0.02983912 -0.0423609 -0.026825929 -0.16745669 0.12640508 0.047594465 -0.07212551 -0.18318686
-0.10226257 -0.056830287 0.03501096 -0.10788552 0.10518737 -0.05884648 -0.11777572 -0.12615678
0.112149626 0.20701148 0.06774399 -0.14875577 0.066346176 0.011165344 -0.07502129 0.05912988
-0.03452247 -0.05885098 0.05359215 -0.10874925 -0.10569028 -0.057343017 -0.026244994 0.09235256
0.044718456 -0.15426454 -0.110075735 0.0042538354 0.010381558 -0.059770685 -0.05453607 0.15653096
0.002710043 0.08269457 -0.06250648 -0.14227252 -0.03771281 -0.002917659 0.012255819 0.19959982
0.09424504 -0.006448141 0.055511136 0.005070357 -0.19054662 0.060818445 -0.16992803 0.016412774
-0.025875084 0.14832515 -0.040599857 0.04449352 -0.16647783 0.110045105 0.043816548 -0.092745
0.028380666 0.15184373 0.11970815 -0.063442424 -0.06439957 0.15809304 -0.054598637 0.024922717
0.07335221 -0.0802984 0.01450561 0.076200716 0.1628626 -0.101601854 -0.0663719 0.048191957
0.0083019305 0.18691805 0.09055692 -0.04205077 -0.11657831 -0.018170781 0.059828192 -0.015511347
0.11274993 -0.12898391 -0.12985682 -0.08941172 0.003181991 0.11384631 -0.0010398158 -0.08343517
-0.087239355 -0.08176399 -0.09359858 -0.08901882 0.035706133 0.07137669 0.17214304 0.07600102
-0.16328993 0.17237875 0.13344452 -0.098084696 -0.011408257 0.13457848 0.012670801 0.118493244
-0.00041450647 0.01934097 0.025490113 0.06692655 0.030383423 -0.048838634 -0.008253752 2.1095353e-05
-0.09783938 0.06589408 -0.03005551 -0.049327314 -0.14438291 -0.12526986 0.07851844 0.08024551
0.14035165 0.0818336 0.15800762 -0.04291148 -0.010326025 0.09595495 -0.20099224 0.16166535

blocks.0.attn.W_V.weight f4 [64, 64]
00000000: d305 26bd f9f2 893d 74ae debd 8796 b5bd
00000010: d96c f93d 6c79 e3bc c6e3 e0bd ebb7 86bd
00000020: 22c8 373e 414c 283c 8820 07be fe62 92bc
00000030: 3c94 a7bd 482d f6bd 3680 6abd b3ab 093e
00000040: 3637 d63c f4bb e33d 8f0f ddbc c76c 8ebc
00000050: d8e0 2abd 941a 23bd bbfe f1bd 7919 fabd
00000060: b1ba 70bc e1d3 c13d a019 683d c14f c8bc
00000070: f28e c43c 9869 6fbc 1804 363d 7da4 04bd
00000080: 080f a5bc 037e 28bc 48d8 abbd 9137 04be
00000090: af24 98bd 37a9 ce3c 109a bebd 89b4 563d
000000a0: b228 c3bd 0151 0c3e d519 08be 6823 6c3c
000000b0: ef35 c2bd 09e7 8cbd efa0 08be 4b3b e1bd
000000c0: 0b8a 01be 5290 0fbd 3149 f83d 3b73 8f3d
000000d0: b8ee 673d 3a87 7ebb da16 a8bd 9a35 88bc
000000e0: 49de 52bd 3cd6 ebbd 91ef b33d 6232 a5bc
000000f0: d516 9bbd de33 9b3c 70d2 2dbb 491b d03d
00000100: 0acf b1bd ee24 363e 2952 bdbc 4892 fa3c
00000110: e105 023e 7e15 04bd f5f8 05be f2e8 e5bd
00000120: cd5e 1d3e a158 d6bd 36dc 0cbd 31af ff3d
00000130: 99d3 10be 5b41 f33d 3278 d6bb f2db c738
00000140: 609b be3c b785 ae3c 2f20 ab3d a345 d6bd
00000150: 8241 463d a901 1fbd 82cb b23d c5e3 083e
00000160: 785b 79bd dffe be3d 87c9 ddbc 78cd a23d
00000170: db5b a9bd 33c6 43bd 8435 043d cea2 c23b
00000180: 79d5 ce3d cb5b 793b 5ed7 9dbd cf69 d63c
00000190: b2d2 003d 104f 1b3e 67dd 823d 42ff f73d
000001a0: fa9c 94bc 211b 03be 8f56 bebd 6653 903d
000001b0: 52e1 b93d 97d9 043d 40d0 cbbd f91a 763d
000001c0: 0126 603d 1ba6 ccbc ac96 ea3c 0aeb 003e
000001d0: b3f7 97bd 5ed7 133d 5581 99bb 427b 8fbd
000001e0: 8a29 893d 92a7 1b3e 9777 233e 759e 10be
000001f0: 2c76 cc3c 6eeb 1b3e 4e72 c93d 0081 93bb
00000200: 6762 8c3d bd6c 6d3d a9d2 1cbd 7911 4a3d
00000210: 497f 9e3d b14f a4bc 7fc9 d7bd cd54 55bd
00000220: 1efa 0cbe 69da e7bd 46f4 d03c 2c7d 843d
00000230: 86f9 49bc 0ca6 06bd 05a7 f73c dc3f 01bd
00000240: a3d3 32be 0439 433e 5ee4 d93c 721f 81bc
00000250: 4a2d 0d3d 72f5 d7bd cb85 db3d 82cc 253d
00000260: ff93 8b3c 8e00 9bbb 969c 5b3d 8f73 813d
00000270: 48bf dcbd e99a f73c 2ed0 96bb 2b66 72bd
00000280: cda2 ff3d 3c63 223e 02fb 553d 8252 94bd
00000290: 700f 92bd aff5 99bd e994 cd3d 45a5 b73d
000002a0: 603a c0bd 163e 123e 6246 a53d 3d31 9cbd
000002b0: 8b09 f5ba 6d2b 0bbe 4904 a0bd 4642 bd3d
000002c0: b266 9cbd c4ac f6bc 97ae 7abc 2dbd 753b
000002d0: 0081 d23c 6366 7e3d 0505 1fbe 408a 823c
000002e0: 0def 08be 22d1 dabd 368d 36bd 048f c3bc
000002f0: f95f 9bbd 4b59 fa3d 114a 5a3d 1f0e 9bbc
00000300: b2ea a03d 6887 ffbc bad9 0fbe 9530 b1bd
00000310: 0d4a dc3c 4902 2e3d 1c75 613c 52db 003e
00000320: 496a 49bd c47e 7f3b 1d97 313a fc79 8b3c
00000330: 19a0 943d f201 cfbd 442d 323d 5e31 493e
00000340: 5cd3 91bd 6ca4 093e 991b d4bd 4430 9c3d
00000350: 2b5e 52bc cc3a 9e3d 6b69 d6bc be5b 543d
00000360: 35ca c7bd 049a ab3c 1a01 20be d152 df3c
00000370: c464 383e 88d1 8bbd 21ed 9bbd 0893 8f3c
00000380: 23f5 163e 385a 823d 009a d43d 7055 0bbd
00000390: 0ec4 00bc f6d9 5dbd a1d5 49be 7cb0 c4bd
000003a0: 9f5c 7d3d 06f2 173e 1078 703d c9bd 6c3d
000003b0: 9592 d33b 038f ab3c 034b 6a3d 348b 03be
000003c0: 79cf e3bb e7e4 25be a592 8d3d fa5e b7bc
000003d0: e9bd 033e 60ef 0bbc 3513 4c3d c35a ca3d
000003e0: 2990 893c 4f9f 53bd 685a 0e3e bf3b 20bd
000003f0: 3beb f53d bed1 673d 1456 c6bd 4bd2 943a
-0.0405329 0.067357965 -0.10873118 -0.088666014 0.12178964 -0.02776786 -0.10980944 -0.06578048
0.17947438 0.010272087 -0.13196003 -0.017869469 -0.0818257 -0.120203555 -0.057251178 0.13444404
0.026149374 0.111198336 -0.026984958 -0.017385853 -0.041718334 -0.03982027 -0.11816164 -0.1221189
-0.014692948 0.09464241 0.056665063 -0.024452092 0.023993943 -0.014612578 0.044437498 -0.03238343
-0.020148769 -0.01028395 -0.08390862 -0.12911822 -0.07428872 0.025227172 -0.09306729 0.052418265
-0.095292464 0.13702776 -0.13291104 0.014412738 -0.09482943 -0.06880004 -0.13342641 -0.10997637
-0.12650315 -0.035049744 0.12123335 0.070044 0.056624144 -0.0038837926 -0.082074836 -0.016627122
-0.05148152 -0.11515471 0.08785928 -0.020165626 -0.07572714 0.01894563 -0.0026523136 0.10161454
-0.08682068 0.17787525 -0.023110466 0.03058733 0.12697555 -0.03224706 -0.13083251 -0.112260714
0.15368195 -0.10466123 -0.034389697 0.12484587 -0.14143218 0.118777 -0.00654509 9.5300275e-05
0.023267448 0.021303995 0.08355748 -0.10462501 0.048402317 -0.038819943 0.08730222 0.13368137
-0.060878247 0.093259566 -0.027073635 0.07949346 -0.08269473 -0.04779644 0.0322776 0.005939818
0.100993104 0.0038049098 -0.07707094 0.0261735 0.031450935 0.15166879 0.063898854 0.121092334
-0.018141259 -0.12803318 -0.092938535 0.07047157 0.090761796 0.032434072 -0.0995183 0.060084317
0.054723743 -0.024981549 0.0286363 0.1258966 -0.07420292 0.036094062 -0.004684607 -0.070059314
0.06697376 0.15200642 0.15963589 -0.14122947 0.024958692 0.15226528 0.09836255 -0.004501462
0.06854706 0.05796503 -0.03828684 0.04933307 0.077391215 -0.020057531 -0.10536479 -0.052082825
-0.13767287 -0.11320955 0.025507104 0.06469187 -0.012327557 -0.0328732 0.030231008 -0.03155504
-0.17463546 0.19064718 0.026598152 -0.015762065 0.03446702 -0.10544862 0.10718878 0.040478237
0.017038343 -0.0047302907 0.05361613 0.06320869 -0.107786715 0.030225234 -0.0046024537 -0.059179466
0.12482224 0.15858167 0.052241333 -0.072422996 -0.07131851 -0.075175636 0.10038168 0.089670695
-0.09386134 0.14281496 0.08070065 -0.07626579 -0.0018694861 -0.13590784 -0.07813317 0.09241156
-0.07636775 -0.030111678 -0.0153004145 0.003749679 0.025696278 0.062109362 -0.15529259 0.015935063
-0.1337244 -0.1068442 -0.044568263 -0.023871906 -0.07586665 0.122240625 0.05329329 -0.018927632
0.078572646 -0.031192496 -0.140479 -0.086518444 0.026890779 0.042482648 0.013760831 0.12583664
-0.049173627 0.003898547 0.0006774532 0.01702594 0.07257099 -0.10107793 0.0435002 0.19647738
-0.07120392 0.13441628 -0.10356826 0.076263934 -0.012839834 0.07726058 -0.026173314 0.051845305
-0.09755365 0.020947464 -0.1562542 0.02726117 0.18007189 -0.06827074 -0.07613588 0.017526165
0.1474195 0.06364864 0.10380936 -0.034017026 -0.007859243 -0.054162942 -0.19710399 -0.09603974
0.06185591 0.14838418 0.05870825 0.05779818 0.006456683 0.020942217 0.057200443 -0.1284607
-0.006952223 -0.162006 0.06912736 -0.022384156 0.12865414 -0.008540958 0.049823005 0.09880593
0.016792374 -0.0516656 0.13901675 -0.03911948 0.12007757 0.05659651 -0.09684387 0.0011354176

blocks.0.attn.W_O.weight f4 [64, 64]
00000000: 3eaa fd3d 5be2 63bc c0ee 57bd 2169 4a3d
00000010: bd68 38bd 9e5e 2d3c 71e6 f5bd e8c4 b33d
00000020: 6edd 66bd 69fb 22bd 1464 243c 6653 01be
00000030: 790e 4d3d 55d0 88bd 78f5 1fbc c7b7 14be
00000040: 26a9 833c 53c5 a9bd 454c e33d 525e 19be
00000050: eb8d 1cbe 240b 533c 0b7f e1bd 1de8 de3d
00000060: e389 1d3e 7ef0 9dbd 866e ff3d 3865 8dbd
00000070: 2cf3 543c cda3 c3bd 8ff1 833c 832f a0bd
00000080: a295 813d eb8d 263d ae0b 9cbd c1e9 f63b
00000090: b8e2 d93d cdc5 953d a14c 803d 084d a7bc
000000a0: b0f3 013e 0087 633d 44ac c6bd 267f 06bd
000000b0: 7b14 19be 6052 94bc 9d2e 37bc f4a5 54bd
000000c0: d19d 763d b5d6 0a3e b255 8ebd 209f c8bd
000000d0: 4cb3 7abd 2a74 9a3b 06c6 e7bd 6e94 eebb
000000e0: 6722 083e 1c07 19be ac20 71bd 4aff 2b3d
000000f0: 0be3 9c3d 45d6 0139 1b04 e53d 7d72 67bd
00000100: 55ff b33c fcb8 20bd 2ec5 063e 7d06 a4bd
00000110: 2e59 84bc dfa1 f73d c6cd 57bd b10f ae3c
00000120: aec3 ba3d 8c7f 3cbd 0e26 bc3d b0e6 89bd
00000130: 8998 99bd 4dfa d4bd 822c f83c eca3 153e
00000140: 2875 24be 7660 fcbc 0968 18be 4809 40bd
00000150: cb8f 0b3d 2640 63bc 799d 27be 71a8 a0bd
00000160: daa6 8bbd e958 2abd a1d6 b1bd 53f7 e9bd
00000170: 7337 c2bd eb48 f03d 3264 e13d 66b6 cebc
00000180: 2653 253c cb5f b0bd d9fa b3bc b34c de3d
00000190: a92d 75bc 5b86 49b9 b702 093e c6f8 2dbe
000001a0: 541c 113d b263 dd3d 26c0 cf3d 2283 0bbd
000001b0: 9f2a 09b9 cc5f b8bd b12b 1abe affc e5bd
000001c0: 1df7 a5bd 468c a5bc 4d42 1bbe 90a6 0a3e
000001d0: 6af0 b7bd cbf6 e23c 2ab3 4dbc 66c4 933d
000001e0: 0709 b9bd b859 9d3d 3c76 eb3c 7327 dd3c
000001f0: b884 8ebd e797 a5bd f855 623c dd78 d7bd
00000200: 4837 3bbd 8ad9 f2bd d716 e83d 8fa0 863d
00000210: 07b9 c5bd c344 ff3d 3b9d 843d 2d01 3ebd
00000220: d2da 063c 523f 923d e4e4 bebd a088 df3b
00000230: de9a ad3d 2a4d f2bd fbb7 35bd bd96 73bd
00000240: d108 21be e8c9 303e 7e11 8b3d ee58 e7bd
00000250: 7605 79bd 775e 103d cfee 9ebc bd1c 813d
00000260: 88c3 d8bd 0c21 cfbc c16a 923d 6958 08be
00000270: 3398 8dbd e3ff 52bd 631f f63d c58f 89bd
00000280: 1497 373e 3bbb 053d b657 a1bd 95b8 ecbb
00000290: 1ebf 64bd 8fd4 2cbe 7662 23be 8a08 0a3e
000002a0: 534a bc3d 1ae9 0abe 28c5 6ebc 7d74 d93c
000002b0: 840f 043e cff7 003e 3c4a d73d 1b9f 213e
000002c0: 2ab6 41bc 9b92 8fbc 7ab4 b73d 6254 74bd
000002d0: d5f1 17be 52c9 863d d229 8f3d 81e4 4e3d
000002e0: e6d6 9f3d b6f5 463d d10c 8a3c df71 64bc
000002f0: 6ff7 813d 8bea 6abd 1d44 ec3d 3fd9 433d
00000300: d42f 82bc 5a0f f43b 1002 abbc bdbf db3d
00000310: c681 75bd c3f3 3f3c fb47 46bd 310e b93d
00000320: 6d0e 573d a95c 4b3d d099 1ebe 4e3d 07be
00000330: 6cfb d63d ae07 81bd 7a3e 963d 6ff5 ffbd
00000340: 1c0c a03d 782f 223c ca0b afbd dca4 183e
00000350: 7f9d db3d 4272 95bd 3c7a 083c 3582 e63d
00000360: af97 4cbd d060 c43d 697b d93d e1a6 073d
00000370: 9b2d c6bc f5ee 653d 1b05 e33d df44 183d
00000380: 5330 0cbe fc69 cdbd 2892 5a3d 1bff 54bd
00000390: f5dd c33c 5e60 893d cbe9 253e 753d 183d
000003a0: 60c3 923d a46b 303e cbf0 0abd 6c23 733d
000003b0: cf78 a73d 56f3 6d3c da51 aebd dc2f 433c
000003c0: 9bcf ddbc ba19 e9bd 89cb 1abe 258c 5fbd
000003d0: c3ae 21be 6007 a93d f8a5 35bd 160d 903c
000003e0: c6ee dabb e08b 91bd bcd5 233d ff5b efbd
000003f0: 92d8 e63d 6ff8 82bc ab2b f43d 9901 d93c
0.12385987 -0.013908948 -0.052717924 0.049416665 -0.04502176 0.0105816405 -0.12006844 0.08777791
-0.056363516 -0.039790545 0.010033626 -0.1262947 0.05006263 -0.06680361 -0.009763114 -0.1452323
0.016071867 -0.0828959 0.11098532 -0.14977387 -0.15288512 0.012881074 -0.1101056 0.10884116
0.15384631 -0.07711886 0.124722525 -0.069040716 0.01299743 -0.09552727 0.016106395 -0.07821562
0.06327368 0.040662687 -0.07619415 0.00753519 0.10638946 0.07313118 0.06264616 -0.020422474
0.12690616 0.055548668 -0.09700826 -0.032836102 -0.14949219 -0.018105686 -0.011180547 -0.051916078
0.0602091 0.13558467 -0.06949939 -0.09795976 -0.061206147 0.004713555 -0.11317067 -0.007280878
0.13294373 -0.14944118 -0.05886905 0.04199151 0.076604925 0.0001238222 0.11182424 -0.05650567
0.021972338 -0.039238915 0.13161156 -0.0800905 -0.016155805 0.12091421 -0.052686475 0.021247717
0.09119354 -0.046020076 0.09186946 -0.06733453 -0.07499797 -0.103993036 0.03029466 0.14613312
-0.16060317 -0.030807715 -0.14883436 -0.04688385 0.03407268 -0.013870275 -0.16368665 -0.07844628
-0.06818934 -0.041588698 -0.08683515 -0.114241265 -0.09483232 0.11732658 0.11005439 -0.025233459
0.010090625 -0.08612021 -0.0219702 0.10854473 -0.0149644995 -0.00019218905 0.13379942 -0.16989431
0.035427406 0.10810031 0.10144071 -0.034060605 -0.00013081216 -0.09002647 -0.1505573 -0.11229836
-0.08103774 -0.02020849 -0.1516201 0.13540101 -0.08981402 0.02770557 -0.012554923 0.072151944
-0.09034925 0.07683128 0.028742902 0.02699635 -0.06958908 -0.08085614 0.013814442 -0.105211
-0.045707017 -0.118578985 0.11332481 0.06573593 -0.09654432 0.12464287 0.06475302 -0.04638784
0.008230882 0.07140984 -0.09321001 0.006821707 0.08476804 -0.11831124 -0.04436491 -0.059469927
-0.1572602 0.17264521 0.06790446 -0.11296259 -0.060796224 0.03524634 -0.019400982 0.063043095
-0.105841696 -0.025284313 0.07149268 -0.13314976 -0.06913795 -0.051513564 0.12017705 -0.06716875
0.17928725 0.03264926 -0.07878058 -0.0072241523 -0.055846326 -0.1687796 -0.15955529 0.1347982
0.09193864 -0.13565484 -0.014573373 0.026544804 0.12896544 0.12594531 0.10512206 0.1578335
-0.011823216 -0.017525962 0.0896997 -0.059650786 -0.14838345 0.065813676 0.069903985 0.050510887
0.078046605 0.048574172 0.016851814 -0.013943165 0.06346022 -0.057352584 0.11536429 0.047814604
-0.015891947 0.007448119 -0.020875007 0.107299305 -0.059938215 0.011715832 -0.04840849 0.0903591
0.052503992 0.049648914 -0.15488362 -0.1320698 0.10497174 -0.06300293 0.07336135 -0.124979846
0.0781481 0.009899013 -0.085471705 0.14906639 0.10723399 -0.072971836 0.008329924 0.11255304
-0.049949344 0.09588778 0.10619242 0.033118133 -0.024191668 0.05613609 0.11084958 0.037175056
-0.13690309 -0.100299805 0.05336204 -0.0520011 0.023909548 0.06707834 0.16202466 0.037167985
0.07166171 0.17228562 -0.033921044 0.059359953 0.08177339 0.014523348 -0.08511706 0.011913266
-0.027076533 -0.1138186 -0.15116705 -0.05457701 -0.15789323 0.0825336 -0.044347733 0.017584365
-0.006681296 -0.07106757 0.039998755 -0.11687469 0.11271776 -0.015987603 0.119223915 0.02649002

blocks.0.mlp.W_in.weight f4 [256, 64]
00000000: 0f57 163d 8aa4 9abd e91d 86bd eac0 d33c
00000010: f8c7 29bd 6c4f 9b3d 38f0 5b3d 2591 c7bd
00000020: a923 a63d 4699 2b3d 6977 33bd 2a4e 79bd
00000030: 538c b9bd 1f0e 00be a6b7 fabc f14e b63c
00000040: bb68 7eba c751 e23d c2fc 3c3d 6ee1 d53d
00000050: b3f0 ef3d 1aa9 9d3d 5970 de3d c906 233c
00000060: 9fc9 b03b d288 94bc 2c85 173c 2644 093e
00000070: bea7 b9bc adf3 9bbd ed24 23bd 3b04 a4bd
00000080: 6f49 14be 4e6c a5bb 1952 0dbc 8bb2 70bc
00000090: bb5a c93d de27 8e3d db4c 363c ff2e 533b
000000a0: 1084 cdbc 4334 983d 4b73 14bd f099 55bd
000000b0: 083f 42bd a1e1 b53d 087a 17bd 989f 093e
000000c0: f445 0b3e 8c72 c6bd 1227 3ebd 552f c93d
000000d0: d8df 9dbc f46e 5c3d a8b4 a2bd 6339 483d
000000e0: f467 fbbd 63d5 9ebb f387 1fbe 5f62 adbc
000000f0: 0a46 b43d cee2 503d 262b f5bd 38f9 353d
00000100: 2abc 32bc 785e 9bbd 6adb c43d 2ec6 8a3d
00000110: 480e edba c3c0 733d 604d ad3d 4c44 13be
00000120: 175f cc3c bc01 993d 80e2 1d3d 0608 bebb
00000130: ce5b db3b 0dbe b93c b8ac f03c 6be5 80bd
00000140: 5981 ac3d f39d 7ebc e563 2c3d 212d 59bd
00000150: 8ddd e23d 8438 9fbd 734b b5bc b9f2 57bd
00000160: da3f 123e 2023 87bd 72c5 673d 196d f03c
00000170: 3d3a 823d 18a5 dabd 9813 8cbd 757f f8bd
00000180: 52ef 49bd 42bd dabd dc99 69bd 2c2b 973d
00000190: f9fe 6e3d a904 bd3c ce90 1cbd 31ac ebbd
000001a0: a498 12bd 9b60 ac3d 6999 893c 47b0 7f3d
000001b0: 08fe cabc 2c40 dc3d 6ef3 9f3d 0713 d6bb
000001c0: e5dd 0b3e 1329 683c 6fcf 1bbd 0aeb f23c
000001d0: c0ee 96bd 0f0e c03d b070 30bd e788 bdbd
000001e0: 0556 36bc 37cb d3bd a7af acbd 574d cf3d
000001f0: bbbb bcbc 9279 cf3c ea88 703c b944 153e
00000200: 7b6b 58bd b5cd e9bb b7fa 123e 1d9d 30be
00000210: 9cb5 c8bd 28f6 28bd a0ae 1b3d 4122 a93d
00000220: b62f d9bd 75ed c2bd d66d 1e3d c035 9abd
00000230: b8e2 043e 3504 77bd fd5e 18bd 4c72 88bb
00000240: ce13 9b3d 4b9c 78bd f222 34be 4ebd 123d
00000250: 44d9 e73d b133 7b3c bc70 b03d d2fe 16bd
00000260: 1eb7 9e3c d400 eebd 7d00 92bd 0449 27bc
00000270: dc80 263d 2f68 11bd 7b8d b53d eb7a b7bd
00000280: c1fd fc3d b387 1c3d 4fdc 47bc fbd3 6ebd
00000290: 2a74 4f3d df78 1ebe a5ac 0d3e acf9 633d
000002a0: f500 d6bb 49b9 31bd 5d32 723c f92e a03d
000002b0: fbcd 3d3d ed42 71bc f413 133e 735d da3d
000002c0: 6282 36bd f70c a6bd e5a6 233c e85e 5bbd
000002d0: ec6a b73d 82da 6abd 6932 fb3c ee04 863d
000002e0: a99e 3fbe 1323 e3bd 930b e7bc f9c2 46bd
000002f0: cb01 cdbc c3e4 4a3c 1ad8 fe3d 52f9 713d
00000300: 0d47 023c c249 b53c cebc cabc d295 d9bd
00000310: 270e 81bd e5df b63d 85ea f9bc 5003 d2bc
00000320: 9cc2 043d 1e31 e9ba e709 c23b b672 393d
00000330: a0f9 353d ba24 0abe 5338 5bbd d78b f9bd
00000340: bd98 8fbd 5add aebd 70bb a5bd a2cc 8ebd
00000350: 2f14 1cbd 13ed 5a3e 12c8 fe3d 2465 103d
00000360: 5d23 a23c 86d6 ed3d a6b7 463c eb16 ca3c
00000370: 8c87 213d a57f 6ebd 062a 003e 8f76 a8bd
00000380: 0f7e 36bd 97c2 36be f677 9fbd 1ce3 143e
00000390: 6d12 a53b 596d ac3d 553d 06ba cb30 9a3d
000003a0: 95e1 82bc 1f82 453d 9f0f ddbd c6dc 17bd
000003b0: f82c b23b b9f6 a5bd 0e92 f2bd aac4 62bd
000003c0: 297a c13d 5980 a73b 5a88 a23d 85f3 d03d
000003d0: cd29 2fbd 33db d6bd c93d d83d c954 533d
000003e0: 2c96 f5bd 304f 033d 146d 68bc 2eec 4a3c
000003f0: 4585 0e3e b618 dc3d 01cf cebd 6dbf 043e
0.03670412 -0.075509146 -0.06548674 0.025848825 -0.04145047 0.07583508 0.053695887 -0.09744481
0.081122704 0.04189422 -0.04381505 -0.06086556 -0.09059968 -0.12505387 -0.030605149 0.02225444
-0.0009704937 0.11050754 0.046139486 0.10443388 0.117158316 0.07698269 0.10861272 0.009950348
0.005395129 -0.018131647 0.009248059 0.13404903 -0.022662994 -0.07614837 -0.039830137 -0.080086194
-0.14481138 -0.0050483113 -0.008625531 -0.014691005 0.098317586 0.06941198 0.011126722 0.0032224057
-0.025087386 0.07431843 -0.036242764 -0.05214876 -0.047423393 0.08880926 -0.036981612 0.13439786
0.13600904 -0.09689817 -0.04642398 0.09823481 -0.019271776 0.05381675 -0.07944614 0.048882853
-0.12275687 -0.004847215 -0.15579204 -0.021165071 0.088024214 0.050997548 -0.119711205 0.044427127
-0.01090912 -0.07586378 0.096121624 0.06776081 -0.0018085921 0.059510004 0.08462024 -0.14381522
0.024947686 0.07471034 0.038546085 -0.0057992963 0.0066942936 0.022673631 0.029379234 -0.06293758
0.084231086 -0.015540588 0.042087454 -0.053021554 0.11077414 -0.077744514 -0.022130704 -0.052721713
0.1428217 -0.065984964 0.056584783 0.029348897 0.06358764 -0.106760204 -0.06839675 -0.121336855
-0.0493005 -0.10680629 -0.057031497 0.07381281 0.05834863 0.023073511 -0.038224034 -0.11507452
-0.0357901 0.084168635 0.016796784 0.06242397 -0.024779335 0.10754427 0.078101024 -0.00653303
0.13658865 0.014169949 -0.03803962 0.029653091 -0.07369757 0.093776815 -0.043076217 -0.09254628
-0.011128907 -0.103414945 -0.084319405 0.10122173 -0.023038736 0.025326524 0.01468108 0.14576997
-0.052836876 -0.007135118 0.14353453 -0.17247434 -0.09800264 -0.041250378 0.038008332 0.082584865
-0.10604803 -0.095179476 0.038678966 -0.07529783 0.12977111 -0.060306747 -0.037199963 -0.004164016
0.07572137 -0.060695928 -0.17591456 0.035825066 0.11320737 0.015332148 0.086152524 -0.03686411
0.019374426 -0.11621252 -0.071289994 -0.010210279 0.040650234 -0.035499748 0.08864876 -0.089589916
0.12353087 0.03821535 -0.012198522 -0.05830763 0.050647892 -0.15475796 0.1383539 0.055658028
-0.006530876 -0.043389592 0.014782515 0.07821459 0.046339016 -0.014725429 0.1436308 0.10662355
-0.044557936 -0.081079416 0.009988521 -0.053557307 0.089559406 -0.05733729 0.030663686 0.06543909
-0.18712868 -0.11090674 -0.028203761 -0.048525784 -0.025025269 0.012383643 0.12443562 0.05907566
0.00795151 0.022129897 -0.024748232 -0.10624279 -0.063015275 0.08929423 -0.030507335 -0.025636345
0.032412156 -0.0017791127 0.0059215906 0.045275412 0.044427514 -0.13490573 -0.05352051 -0.121848755
-0.070115544 -0.08538313 -0.080923915 -0.06972624 -0.038105186 0.21379499 0.12440504 0.035252705
0.019792253 0.11613183 0.012128746 0.024669131 0.03943591 -0.0582272 0.1251603 -0.08225738
-0.044553813 -0.17847668 -0.077865526 0.1453976 0.005037597 0.08419294 -0.00051208335 0.07528838
-0.015976707 0.048219796 -0.10793995 -0.03707578 0.0054374896 -0.08103699 -0.11844264 -0.055363335
0.09447128 0.005111736 0.07936163 0.10202698 -0.042764474 -0.10491028 0.105586596 0.05159453
-0.11991534 0.03205794 -0.0141861625 0.012385411 0.13918026 0.10746901 -0.100980766 0.12963648

blocks.0.mlp.W_in.bias f4 [256]
00000000: 3f3c 23bd 04ef 51bd 82e5 953d 9c76 193d
00000010: 8216 693d 9634 83bc f69e 88bd 6f40 803d
00000020: 444d 9fbd 8580 8dbd ec7a 97bd cb88 9bbd
00000030: 97a7 abbd f7c7 4fbc fcdb c6bd dfad c73d
00000040: 9093 8ebd d80d 083d 27af 973d 7d30 45bd
00000050: 9a3f cf3c 4e87 123e c382 01be 5462 2fbc
00000060: 7cf5 d13d 34cb d13d 943b 1a3d af5d e13d
00000070: 2d0a b1bd 2168 0b3e e629 be3c fbf9 5fbd
00000080: d7e3 903d d0cf ff3d 990e c3bd a8de cb3d
00000090: 5574 3d3d 41d8 e83d 68c6 ccbd 4c15 6f3d
000000a0: 2b54 d43d a7ca 65bd 7bcd a63d 1cf2 bfbd
000000b0: cce0 2c3d 9a34 8fbd 1ef7 e4bd 52cf a53d
000000c0: cfb5 623d 1856 993d 46ee c83d 179f 0bbc
000000d0: 88f8 8bbd ac6a 973d 6181 003e 846c e4bd
000000e0: 5c6c e2bd 8b87 88bd e23d 66bd 79ff 913d
000000f0: 6ab2 d9bd 6ddd 803d 1d5d cc3c 2562 c1bd
00000100: ea42 f0bd aa89 da3d 47df c3bd 9588 a3bd
00000110: d097 c33c 9f42 c1bd d16a 633c 9261 15bd
00000120: 826b 4abc 7663 edbd e8bc 72bd df0f cd3d
00000130: e0db 83bd d7ec 8e3d 33f1 db3d e18f c63c
00000140: a644 a43d ca55 afbd 5d8d 94bd ed41 ac3d
00000150: ea48 a53d 1740 d73c 1a7c 8abd 375f 63bd
00000160: 10c0 d63d 0e6b 0e3e 6c7b 8bbd dd5b 173d
00000170: f9ea 93bd b095 edbc 40ed 1ebb 0e2b bfbd
00000180: bc00 a53c d212 0ebd 4bd4 f93d dfab e7bc
00000190: f829 cbbd a92f 1b3d 2a77 123e 5065 d73d
000001a0: 6a41 8c3d 8e68 babd 4c09 8e3d b318 043a
000001b0: 8fc0 aebd 5b41 44bd bcf5 c2bd 7556 73bd
000001c0: e130 3d3d 8e0c ed3d f6d0 d2bd d703 813d
000001d0: ad63 403d a9c7 6abd a4b8 8bba a762 a8bd
000001e0: d99b c9bd d31e ec3d 85df d03d 9f42 933c
000001f0: 29c9 1abd 3c36 efbc 6531 4e3d 89c0 c1bd
00000200: cf04 5fbd 3550 803d 1232 a53d 6408 f7bc
00000210: 7230 20bd 05a7 a33d 7f12 c33d 252d d2bd
00000220: 33f9 10bd 921f adbd 147a 80bb 8af4 9c3d
00000230: 363a f6bd 6fd1 adbd b238 0ebd a3cc 193d
00000240: 1625 fa3d 9ae3 4c3d 2ce2 943d 6047 093e
00000250: e647 903d b514 abbd c0d4 65bd 8af3 a03d
00000260: 9672 38ba 7dd7 bfbd e61b 2c3d f6f1 d7bd
00000270: fcfa 653c a02a 1a3e c840 d33d beb5 713b
00000280: 7bd4 1f3b cdd5 313d d4d5 14bd 2b9b 8bbd
00000290: fd91 063e e009 e5bd 110f 123d cf42 81bc
000002a0: a666 523d 6e76 7cbd 3f6c 7f3d 1cdc 41bd
000002b0: bd62 42bd d550 003e 60b1 763c e680 be3d
000002c0: 3553 83bd e5b8 d13d 65a5 e3bb 5581 c03d
000002d0: 96e8 42bd b288 7f3b ee41 0d3d b1ee 88bd
000002e0: 9ed0 113d 6dd8 79bd 1e25 8d3d 8cbf 093e
000002f0: b2e8 1abd cc43 51bc 393d 2d3d ce83 6b3c
00000300: b5d1 6d3c e862 3dbd 614a c73d f890 1dbd
00000310: 4153 d73d 3ffa 893d c0db f43d c76a 9d3c
00000320: 9e23 f3bc 8806 6bbd c074 c13d e5c5 afbd
00000330: 7929 e03b e09d a7bd 0edb b3bd ae31 a03c
00000340: 60e1 40bd 615e b3bd 0798 2cbd fa99 043e
00000350: cfce b13b 0528 7d3c 250d 67bd 2b40 ddbc
00000360: 76dc 953d 53b2 db3d d002 d43c cbe3 d7bd
00000370: 9d2d f13d 39b6 c4bd 14fe 82bd 7033 da3d
00000380: ad79 8a3d 85e4 053c ddab 903d 5761 933d
00000390: d21a 173e d1ab fb3d 0e8c 5a3d 234f 143e
000003a0: eb2e a1bd 1a20 c4bd 7a39 d0bd 076c 2dbd
000003b0: 3acd 0d3e 2d7e d93b 2fc8 2fbc f9e6 e3bc
000003c0: 9635 13bd 6ccc 61bd 4109 f83d cb9e a5bd
000003d0: 63a7 4c3d b69d b53c 19cd 043e 2c5d 27bd
000003e0: b549 0dbc 237a 36bd 84f8 30bd 0c1f bbbd
000003f0: f5e8 adbd 2faf 753c 5d7e a53b c7da f63c
-0.039852377 -0.051253334 0.07319166 0.03746663 0.05690623 -0.016016286 -0.066709444 0.0626229
-0.07778409 -0.06909279 -0.07396492 -0.075944506 -0.083815746 -0.012681953 -0.097099274 0.0974996
-0.06961739 0.033216327 0.074064545 -0.048141945 0.025298882 0.14309427 -0.12647538 -0.010704596
0.102519006 0.10243836 0.037654474 0.11004197 -0.08644519 0.13613941 0.023213338 -0.05468176
0.07074707 0.12490809 -0.09524269 0.09954578 0.04625352 0.11369372 -0.099987805 0.05836992
0.10367616 -0.056101467 0.08144661 -0.093723506 0.04220657 -0.06992455 -0.11179946 0.08096184
0.055349167 0.07487124 0.09811072 -0.008521817 -0.06834513 0.07393393 0.12549354 -0.1115351
-0.11055824 -0.06666478 -0.05621136 0.07128806 -0.10629733 0.062922336 0.024946744 -0.09442548
-0.11731513 0.106707886 -0.09564071 -0.07985035 0.0238761 -0.09436535 0.0138804475 -0.036470003
-0.012354733 -0.11591236 -0.059262186 0.10012793 -0.06438422 0.06978767 0.107393645 0.024238529
0.08020906 -0.08561285 -0.072535254 0.08411012 0.08070548 0.026275678 -0.06761952 -0.055510726
0.10485852 0.13908026 -0.0681065 0.036952842 -0.07222552 -0.02900204 -0.0024250299 -0.09334384
0.020141952 -0.034685917 0.12198695 -0.028280197 -0.09920114 0.03788725 0.1430327 0.10517371
0.06848414 -0.091019735 0.06935367 0.0005039081 -0.085328214 -0.04791389 -0.09519526 -0.059408624
0.046189193 0.1157466 -0.102937624 0.062995605 0.04697006 -0.057319317 -0.0010659886 -0.082219414
-0.09844179 0.11529317 0.10198883 0.017976103 -0.037789498 -0.029200666 0.050340075 -0.09460551
-0.054447945 0.06265298 0.08066191 -0.030155368 -0.0391087 0.07990841 0.09525012 -0.10262517
-0.035393905 -0.08453287 -0.003920803 0.076638296 -0.120228216 -0.08487212 -0.034722038 0.037548672
0.12214105 0.050021745 0.07269701 0.13406134 0.070449635 -0.08353559 -0.056111097 0.078589514
-0.00070361176 -0.09367273 0.042018794 -0.10544197 0.01403689 0.15055323 0.103150904 0.0036882008
0.0024388123 0.043416787 -0.036336735 -0.06816705 0.13141628 -0.11183524 0.0356589 -0.015778927
0.051367424 -0.06163638 0.06235909 -0.047329053 -0.047457445 0.12530835 0.015056938 0.09301929
-0.06412355 0.10240344 -0.006947207 0.09399668 -0.047585092 0.003899139 0.034486704 -0.06686152
0.035599343 -0.060997415 0.06891845 0.13451976 -0.03781957 -0.012772512 0.042294715 0.014374686
0.01451533 -0.046236902 0.097309835 -0.03846833 0.10513926 0.06737184 0.119559765 0.019215954
-0.02968007 -0.057379276 0.094460964 -0.08582667 0.0068408814 -0.08184409 -0.08782016 0.01955494
-0.047089934 -0.08758236 -0.042137172 0.12949362 0.005426265 0.015451436 -0.05640902 -0.027008137
0.0731744 0.10727372 0.025880247 -0.10541495 0.11776278 -0.09605069 -0.06396118 0.10654342
0.06761489 0.008172159 0.0706403 0.071963005 0.14756325 0.12288631 0.053356223 0.14483313
-0.07870277 -0.095764354 -0.10167213 -0.04233935 0.13847819 0.006637356 -0.01072888 -0.027820097
-0.035939775 -0.055126593 0.1211114 -0.08086928 0.04996432 0.022169929 0.12968864 -0.04086034
-0.00862353 -0.044550072 -0.043205753 -0.09136781 -0.08491699 0.01499538 0.005050464 0.030133618
